<?xml version="1.0"?>
<net name="torch-jit-export" version="11">
	<layers>
		<layer id="0" name="result.1" type="Parameter" version="opset1">
			<data shape="1,1,1,16000" element_type="f32" />
			<output>
				<port id="0" precision="FP32" names="result.1">
					<dim>1</dim>
					<dim>1</dim>
					<dim>1</dim>
					<dim>16000</dim>
					<rt_info>
						<attribute name="layout" version="0" layout="[N,C,W,L]" />
					</rt_info>
				</port>
			</output>
		</layer>
		<layer id="1" name="Constant_5184" type="Const" version="opset1">
			<data element_type="f32" shape="1, 1, 1, 1" offset="0" size="4" />
			<output>
				<port id="0" precision="FP32">
					<dim>1</dim>
					<dim>1</dim>
					<dim>1</dim>
					<dim>1</dim>
				</port>
			</output>
		</layer>
		<layer id="2" name="Constant_5185" type="Const" version="opset1">
			<data element_type="f32" shape="1, 1, 1, 1" offset="4" size="4" />
			<output>
				<port id="0" precision="FP32">
					<dim>1</dim>
					<dim>1</dim>
					<dim>1</dim>
					<dim>1</dim>
				</port>
			</output>
		</layer>
		<layer id="3" name="Constant_5186" type="Const" version="opset1">
			<data element_type="f32" shape="1, 1, 1, 1" offset="0" size="4" />
			<output>
				<port id="0" precision="FP32">
					<dim>1</dim>
					<dim>1</dim>
					<dim>1</dim>
					<dim>1</dim>
				</port>
			</output>
		</layer>
		<layer id="4" name="Constant_5187" type="Const" version="opset1">
			<data element_type="f32" shape="1, 1, 1, 1" offset="4" size="4" />
			<output>
				<port id="0" precision="FP32">
					<dim>1</dim>
					<dim>1</dim>
					<dim>1</dim>
					<dim>1</dim>
				</port>
			</output>
		</layer>
		<layer id="5" name="271" type="FakeQuantize" version="opset1">
			<data levels="256" auto_broadcast="numpy" />
			<input>
				<port id="0" precision="FP32">
					<dim>1</dim>
					<dim>1</dim>
					<dim>1</dim>
					<dim>16000</dim>
				</port>
				<port id="1" precision="FP32">
					<dim>1</dim>
					<dim>1</dim>
					<dim>1</dim>
					<dim>1</dim>
				</port>
				<port id="2" precision="FP32">
					<dim>1</dim>
					<dim>1</dim>
					<dim>1</dim>
					<dim>1</dim>
				</port>
				<port id="3" precision="FP32">
					<dim>1</dim>
					<dim>1</dim>
					<dim>1</dim>
					<dim>1</dim>
				</port>
				<port id="4" precision="FP32">
					<dim>1</dim>
					<dim>1</dim>
					<dim>1</dim>
					<dim>1</dim>
				</port>
			</input>
			<output>
				<port id="5" precision="FP32" names="271">
					<dim>1</dim>
					<dim>1</dim>
					<dim>1</dim>
					<dim>16000</dim>
				</port>
			</output>
		</layer>
		<layer id="6" name="Constant_5713" type="Const" version="opset1">
			<data element_type="i8" shape="64, 1, 1, 33" offset="8" size="2112" />
			<output>
				<port id="0" precision="I8">
					<dim>64</dim>
					<dim>1</dim>
					<dim>1</dim>
					<dim>33</dim>
				</port>
			</output>
		</layer>
		<layer id="7" name="Convert_5714" type="Convert" version="opset1">
			<data destination_type="f32" />
			<input>
				<port id="0" precision="I8">
					<dim>64</dim>
					<dim>1</dim>
					<dim>1</dim>
					<dim>33</dim>
				</port>
			</input>
			<output>
				<port id="1" precision="FP32">
					<dim>64</dim>
					<dim>1</dim>
					<dim>1</dim>
					<dim>33</dim>
				</port>
			</output>
		</layer>
		<layer id="8" name="Constant_5715" type="Const" version="opset1">
			<data element_type="f32" shape="64, 1, 1, 1" offset="2120" size="256" />
			<output>
				<port id="0" precision="FP32">
					<dim>64</dim>
					<dim>1</dim>
					<dim>1</dim>
					<dim>1</dim>
				</port>
			</output>
		</layer>
		<layer id="9" name="Multiply_4947" type="Multiply" version="opset1">
			<data auto_broadcast="numpy" />
			<input>
				<port id="0" precision="FP32">
					<dim>64</dim>
					<dim>1</dim>
					<dim>1</dim>
					<dim>33</dim>
				</port>
				<port id="1" precision="FP32">
					<dim>64</dim>
					<dim>1</dim>
					<dim>1</dim>
					<dim>1</dim>
				</port>
			</input>
			<output>
				<port id="2" precision="FP32">
					<dim>64</dim>
					<dim>1</dim>
					<dim>1</dim>
					<dim>33</dim>
				</port>
			</output>
		</layer>
		<layer id="10" name="Multiply_4805" type="Convolution" version="opset1">
			<data strides="1, 16" dilations="1, 1" pads_begin="0, 16" pads_end="0, 16" auto_pad="explicit" />
			<input>
				<port id="0" precision="FP32">
					<dim>1</dim>
					<dim>1</dim>
					<dim>1</dim>
					<dim>16000</dim>
				</port>
				<port id="1" precision="FP32">
					<dim>64</dim>
					<dim>1</dim>
					<dim>1</dim>
					<dim>33</dim>
				</port>
			</input>
			<output>
				<port id="2" precision="FP32">
					<dim>1</dim>
					<dim>64</dim>
					<dim>1</dim>
					<dim>1000</dim>
				</port>
			</output>
		</layer>
		<layer id="11" name="Constant_4810" type="Const" version="opset1">
			<data element_type="f32" shape="1, 64, 1, 1" offset="2376" size="256" />
			<output>
				<port id="0" precision="FP32">
					<dim>1</dim>
					<dim>64</dim>
					<dim>1</dim>
					<dim>1</dim>
				</port>
			</output>
		</layer>
		<layer id="12" name="273" type="Add" version="opset1">
			<data auto_broadcast="numpy" />
			<input>
				<port id="0" precision="FP32">
					<dim>1</dim>
					<dim>64</dim>
					<dim>1</dim>
					<dim>1000</dim>
				</port>
				<port id="1" precision="FP32">
					<dim>1</dim>
					<dim>64</dim>
					<dim>1</dim>
					<dim>1</dim>
				</port>
			</input>
			<output>
				<port id="2" precision="FP32" names="273">
					<dim>1</dim>
					<dim>64</dim>
					<dim>1</dim>
					<dim>1000</dim>
				</port>
			</output>
		</layer>
		<layer id="13" name="Constant_5190" type="Const" version="opset1">
			<data element_type="f32" shape="1, 1, 1, 1" offset="2632" size="4" />
			<output>
				<port id="0" precision="FP32">
					<dim>1</dim>
					<dim>1</dim>
					<dim>1</dim>
					<dim>1</dim>
				</port>
			</output>
		</layer>
		<layer id="14" name="Constant_5191" type="Const" version="opset1">
			<data element_type="f32" shape="1, 1, 1, 1" offset="2636" size="4" />
			<output>
				<port id="0" precision="FP32">
					<dim>1</dim>
					<dim>1</dim>
					<dim>1</dim>
					<dim>1</dim>
				</port>
			</output>
		</layer>
		<layer id="15" name="Constant_5192" type="Const" version="opset1">
			<data element_type="f32" shape="1, 1, 1, 1" offset="2632" size="4" />
			<output>
				<port id="0" precision="FP32">
					<dim>1</dim>
					<dim>1</dim>
					<dim>1</dim>
					<dim>1</dim>
				</port>
			</output>
		</layer>
		<layer id="16" name="Constant_5193" type="Const" version="opset1">
			<data element_type="f32" shape="1, 1, 1, 1" offset="2636" size="4" />
			<output>
				<port id="0" precision="FP32">
					<dim>1</dim>
					<dim>1</dim>
					<dim>1</dim>
					<dim>1</dim>
				</port>
			</output>
		</layer>
		<layer id="17" name="277" type="FakeQuantize" version="opset1">
			<data levels="256" auto_broadcast="numpy" />
			<input>
				<port id="0" precision="FP32">
					<dim>1</dim>
					<dim>64</dim>
					<dim>1</dim>
					<dim>1000</dim>
				</port>
				<port id="1" precision="FP32">
					<dim>1</dim>
					<dim>1</dim>
					<dim>1</dim>
					<dim>1</dim>
				</port>
				<port id="2" precision="FP32">
					<dim>1</dim>
					<dim>1</dim>
					<dim>1</dim>
					<dim>1</dim>
				</port>
				<port id="3" precision="FP32">
					<dim>1</dim>
					<dim>1</dim>
					<dim>1</dim>
					<dim>1</dim>
				</port>
				<port id="4" precision="FP32">
					<dim>1</dim>
					<dim>1</dim>
					<dim>1</dim>
					<dim>1</dim>
				</port>
			</input>
			<output>
				<port id="5" precision="FP32" names="277">
					<dim>1</dim>
					<dim>64</dim>
					<dim>1</dim>
					<dim>1000</dim>
				</port>
			</output>
		</layer>
		<layer id="18" name="Constant_5717" type="Const" version="opset1">
			<data element_type="i8" shape="128, 64, 1, 5" offset="2640" size="40960" />
			<output>
				<port id="0" precision="I8">
					<dim>128</dim>
					<dim>64</dim>
					<dim>1</dim>
					<dim>5</dim>
				</port>
			</output>
		</layer>
		<layer id="19" name="Convert_5718" type="Convert" version="opset1">
			<data destination_type="f32" />
			<input>
				<port id="0" precision="I8">
					<dim>128</dim>
					<dim>64</dim>
					<dim>1</dim>
					<dim>5</dim>
				</port>
			</input>
			<output>
				<port id="1" precision="FP32">
					<dim>128</dim>
					<dim>64</dim>
					<dim>1</dim>
					<dim>5</dim>
				</port>
			</output>
		</layer>
		<layer id="20" name="Constant_5719" type="Const" version="opset1">
			<data element_type="f32" shape="128, 1, 1, 1" offset="43600" size="512" />
			<output>
				<port id="0" precision="FP32">
					<dim>128</dim>
					<dim>1</dim>
					<dim>1</dim>
					<dim>1</dim>
				</port>
			</output>
		</layer>
		<layer id="21" name="Multiply_4951" type="Multiply" version="opset1">
			<data auto_broadcast="numpy" />
			<input>
				<port id="0" precision="FP32">
					<dim>128</dim>
					<dim>64</dim>
					<dim>1</dim>
					<dim>5</dim>
				</port>
				<port id="1" precision="FP32">
					<dim>128</dim>
					<dim>1</dim>
					<dim>1</dim>
					<dim>1</dim>
				</port>
			</input>
			<output>
				<port id="2" precision="FP32">
					<dim>128</dim>
					<dim>64</dim>
					<dim>1</dim>
					<dim>5</dim>
				</port>
			</output>
		</layer>
		<layer id="22" name="Multiply_4812" type="Convolution" version="opset1">
			<data strides="1, 2" dilations="1, 1" pads_begin="0, 2" pads_end="0, 2" auto_pad="explicit" />
			<input>
				<port id="0" precision="FP32">
					<dim>1</dim>
					<dim>64</dim>
					<dim>1</dim>
					<dim>1000</dim>
				</port>
				<port id="1" precision="FP32">
					<dim>128</dim>
					<dim>64</dim>
					<dim>1</dim>
					<dim>5</dim>
				</port>
			</input>
			<output>
				<port id="2" precision="FP32">
					<dim>1</dim>
					<dim>128</dim>
					<dim>1</dim>
					<dim>500</dim>
				</port>
			</output>
		</layer>
		<layer id="23" name="Constant_4817" type="Const" version="opset1">
			<data element_type="f32" shape="1, 128, 1, 1" offset="44112" size="512" />
			<output>
				<port id="0" precision="FP32">
					<dim>1</dim>
					<dim>128</dim>
					<dim>1</dim>
					<dim>1</dim>
				</port>
			</output>
		</layer>
		<layer id="24" name="282" type="Add" version="opset1">
			<data auto_broadcast="numpy" />
			<input>
				<port id="0" precision="FP32">
					<dim>1</dim>
					<dim>128</dim>
					<dim>1</dim>
					<dim>500</dim>
				</port>
				<port id="1" precision="FP32">
					<dim>1</dim>
					<dim>128</dim>
					<dim>1</dim>
					<dim>1</dim>
				</port>
			</input>
			<output>
				<port id="2" precision="FP32" names="282">
					<dim>1</dim>
					<dim>128</dim>
					<dim>1</dim>
					<dim>500</dim>
				</port>
			</output>
		</layer>
		<layer id="25" name="Constant_5196" type="Const" version="opset1">
			<data element_type="f32" shape="1, 1, 1, 1" offset="2632" size="4" />
			<output>
				<port id="0" precision="FP32">
					<dim>1</dim>
					<dim>1</dim>
					<dim>1</dim>
					<dim>1</dim>
				</port>
			</output>
		</layer>
		<layer id="26" name="Constant_5197" type="Const" version="opset1">
			<data element_type="f32" shape="1, 1, 1, 1" offset="44624" size="4" />
			<output>
				<port id="0" precision="FP32">
					<dim>1</dim>
					<dim>1</dim>
					<dim>1</dim>
					<dim>1</dim>
				</port>
			</output>
		</layer>
		<layer id="27" name="Constant_5198" type="Const" version="opset1">
			<data element_type="f32" shape="1, 1, 1, 1" offset="2632" size="4" />
			<output>
				<port id="0" precision="FP32">
					<dim>1</dim>
					<dim>1</dim>
					<dim>1</dim>
					<dim>1</dim>
				</port>
			</output>
		</layer>
		<layer id="28" name="Constant_5199" type="Const" version="opset1">
			<data element_type="f32" shape="1, 1, 1, 1" offset="44624" size="4" />
			<output>
				<port id="0" precision="FP32">
					<dim>1</dim>
					<dim>1</dim>
					<dim>1</dim>
					<dim>1</dim>
				</port>
			</output>
		</layer>
		<layer id="29" name="286" type="FakeQuantize" version="opset1">
			<data levels="256" auto_broadcast="numpy" />
			<input>
				<port id="0" precision="FP32">
					<dim>1</dim>
					<dim>128</dim>
					<dim>1</dim>
					<dim>500</dim>
				</port>
				<port id="1" precision="FP32">
					<dim>1</dim>
					<dim>1</dim>
					<dim>1</dim>
					<dim>1</dim>
				</port>
				<port id="2" precision="FP32">
					<dim>1</dim>
					<dim>1</dim>
					<dim>1</dim>
					<dim>1</dim>
				</port>
				<port id="3" precision="FP32">
					<dim>1</dim>
					<dim>1</dim>
					<dim>1</dim>
					<dim>1</dim>
				</port>
				<port id="4" precision="FP32">
					<dim>1</dim>
					<dim>1</dim>
					<dim>1</dim>
					<dim>1</dim>
				</port>
			</input>
			<output>
				<port id="5" precision="FP32" names="286">
					<dim>1</dim>
					<dim>128</dim>
					<dim>1</dim>
					<dim>500</dim>
				</port>
			</output>
		</layer>
		<layer id="30" name="287" type="MaxPool" version="opset8">
			<data strides="1, 5" dilations="1, 1" pads_begin="0, 0" pads_end="0, 0" kernel="1, 5" rounding_type="floor" auto_pad="explicit" index_element_type="i64" axis="0" />
			<input>
				<port id="0" precision="FP32">
					<dim>1</dim>
					<dim>128</dim>
					<dim>1</dim>
					<dim>500</dim>
				</port>
			</input>
			<output>
				<port id="1" precision="FP32" names="287">
					<dim>1</dim>
					<dim>128</dim>
					<dim>1</dim>
					<dim>100</dim>
				</port>
				<port id="2" precision="I64">
					<dim>1</dim>
					<dim>128</dim>
					<dim>1</dim>
					<dim>100</dim>
				</port>
			</output>
		</layer>
		<layer id="31" name="Constant_291" type="Const" version="opset1">
			<data element_type="i64" shape="4" offset="44628" size="32" />
			<output>
				<port id="0" precision="I64">
					<dim>4</dim>
				</port>
			</output>
		</layer>
		<layer id="32" name="288" type="Transpose" version="opset1">
			<input>
				<port id="0" precision="FP32">
					<dim>1</dim>
					<dim>128</dim>
					<dim>1</dim>
					<dim>100</dim>
				</port>
				<port id="1" precision="I64">
					<dim>4</dim>
				</port>
			</input>
			<output>
				<port id="2" precision="FP32" names="288">
					<dim>1</dim>
					<dim>1</dim>
					<dim>128</dim>
					<dim>100</dim>
				</port>
			</output>
		</layer>
		<layer id="33" name="Constant_5721" type="Const" version="opset1">
			<data element_type="i8" shape="1, 1, 3, 3" offset="44660" size="9" />
			<output>
				<port id="0" precision="I8">
					<dim>1</dim>
					<dim>1</dim>
					<dim>3</dim>
					<dim>3</dim>
				</port>
			</output>
		</layer>
		<layer id="34" name="Convert_5722" type="Convert" version="opset1">
			<data destination_type="f32" />
			<input>
				<port id="0" precision="I8">
					<dim>1</dim>
					<dim>1</dim>
					<dim>3</dim>
					<dim>3</dim>
				</port>
			</input>
			<output>
				<port id="1" precision="FP32">
					<dim>1</dim>
					<dim>1</dim>
					<dim>3</dim>
					<dim>3</dim>
				</port>
			</output>
		</layer>
		<layer id="35" name="Constant_5723" type="Const" version="opset1">
			<data element_type="f32" shape="1, 1, 1, 1" offset="44669" size="4" />
			<output>
				<port id="0" precision="FP32">
					<dim>1</dim>
					<dim>1</dim>
					<dim>1</dim>
					<dim>1</dim>
				</port>
			</output>
		</layer>
		<layer id="36" name="Multiply_4953" type="Multiply" version="opset1">
			<data auto_broadcast="numpy" />
			<input>
				<port id="0" precision="FP32">
					<dim>1</dim>
					<dim>1</dim>
					<dim>3</dim>
					<dim>3</dim>
				</port>
				<port id="1" precision="FP32">
					<dim>1</dim>
					<dim>1</dim>
					<dim>1</dim>
					<dim>1</dim>
				</port>
			</input>
			<output>
				<port id="2" precision="FP32">
					<dim>1</dim>
					<dim>1</dim>
					<dim>3</dim>
					<dim>3</dim>
				</port>
			</output>
		</layer>
		<layer id="37" name="Multiply_4819" type="Convolution" version="opset1">
			<data strides="1, 1" dilations="1, 1" pads_begin="1, 1" pads_end="1, 1" auto_pad="explicit" />
			<input>
				<port id="0" precision="FP32">
					<dim>1</dim>
					<dim>1</dim>
					<dim>128</dim>
					<dim>100</dim>
				</port>
				<port id="1" precision="FP32">
					<dim>1</dim>
					<dim>1</dim>
					<dim>3</dim>
					<dim>3</dim>
				</port>
			</input>
			<output>
				<port id="2" precision="FP32">
					<dim>1</dim>
					<dim>1</dim>
					<dim>128</dim>
					<dim>100</dim>
				</port>
			</output>
		</layer>
		<layer id="38" name="Constant_5107" type="Const" version="opset1">
			<data element_type="f32" shape="1, 1, 1, 1" offset="44673" size="4" />
			<output>
				<port id="0" precision="FP32">
					<dim>1</dim>
					<dim>1</dim>
					<dim>1</dim>
					<dim>1</dim>
				</port>
			</output>
		</layer>
		<layer id="39" name="Constant_5109" type="Const" version="opset1">
			<data element_type="f32" shape="1, 1, 1, 1" offset="44677" size="4" />
			<output>
				<port id="0" precision="FP32">
					<dim>1</dim>
					<dim>1</dim>
					<dim>1</dim>
					<dim>1</dim>
				</port>
			</output>
		</layer>
		<layer id="40" name="Constant_5202" type="Const" version="opset1">
			<data element_type="f32" shape="1, 1, 1, 1" offset="2632" size="4" />
			<output>
				<port id="0" precision="FP32">
					<dim>1</dim>
					<dim>1</dim>
					<dim>1</dim>
					<dim>1</dim>
				</port>
			</output>
		</layer>
		<layer id="41" name="Constant_5203" type="Const" version="opset1">
			<data element_type="f32" shape="1, 1, 1, 1" offset="44681" size="4" />
			<output>
				<port id="0" precision="FP32">
					<dim>1</dim>
					<dim>1</dim>
					<dim>1</dim>
					<dim>1</dim>
				</port>
			</output>
		</layer>
		<layer id="42" name="297" type="FakeQuantize" version="opset1">
			<data levels="256" auto_broadcast="numpy" />
			<input>
				<port id="0" precision="FP32">
					<dim>1</dim>
					<dim>1</dim>
					<dim>128</dim>
					<dim>100</dim>
				</port>
				<port id="1" precision="FP32">
					<dim>1</dim>
					<dim>1</dim>
					<dim>1</dim>
					<dim>1</dim>
				</port>
				<port id="2" precision="FP32">
					<dim>1</dim>
					<dim>1</dim>
					<dim>1</dim>
					<dim>1</dim>
				</port>
				<port id="3" precision="FP32">
					<dim>1</dim>
					<dim>1</dim>
					<dim>1</dim>
					<dim>1</dim>
				</port>
				<port id="4" precision="FP32">
					<dim>1</dim>
					<dim>1</dim>
					<dim>1</dim>
					<dim>1</dim>
				</port>
			</input>
			<output>
				<port id="5" precision="FP32" names="297">
					<dim>1</dim>
					<dim>1</dim>
					<dim>128</dim>
					<dim>100</dim>
				</port>
			</output>
		</layer>
		<layer id="43" name="Constant_5725" type="Const" version="opset1">
			<data element_type="i8" shape="64, 1, 1, 1" offset="44685" size="64" />
			<output>
				<port id="0" precision="I8">
					<dim>64</dim>
					<dim>1</dim>
					<dim>1</dim>
					<dim>1</dim>
				</port>
			</output>
		</layer>
		<layer id="44" name="Convert_5726" type="Convert" version="opset1">
			<data destination_type="f32" />
			<input>
				<port id="0" precision="I8">
					<dim>64</dim>
					<dim>1</dim>
					<dim>1</dim>
					<dim>1</dim>
				</port>
			</input>
			<output>
				<port id="1" precision="FP32">
					<dim>64</dim>
					<dim>1</dim>
					<dim>1</dim>
					<dim>1</dim>
				</port>
			</output>
		</layer>
		<layer id="45" name="Constant_5727" type="Const" version="opset1">
			<data element_type="f32" shape="64, 1, 1, 1" offset="44749" size="256" />
			<output>
				<port id="0" precision="FP32">
					<dim>64</dim>
					<dim>1</dim>
					<dim>1</dim>
					<dim>1</dim>
				</port>
			</output>
		</layer>
		<layer id="46" name="Multiply_4957" type="Multiply" version="opset1">
			<data auto_broadcast="numpy" />
			<input>
				<port id="0" precision="FP32">
					<dim>64</dim>
					<dim>1</dim>
					<dim>1</dim>
					<dim>1</dim>
				</port>
				<port id="1" precision="FP32">
					<dim>64</dim>
					<dim>1</dim>
					<dim>1</dim>
					<dim>1</dim>
				</port>
			</input>
			<output>
				<port id="2" precision="FP32">
					<dim>64</dim>
					<dim>1</dim>
					<dim>1</dim>
					<dim>1</dim>
				</port>
			</output>
		</layer>
		<layer id="47" name="Multiply_4826" type="Convolution" version="opset1">
			<data strides="1, 1" dilations="1, 1" pads_begin="1, 1" pads_end="1, 1" auto_pad="explicit" />
			<input>
				<port id="0" precision="FP32">
					<dim>1</dim>
					<dim>1</dim>
					<dim>128</dim>
					<dim>100</dim>
				</port>
				<port id="1" precision="FP32">
					<dim>64</dim>
					<dim>1</dim>
					<dim>1</dim>
					<dim>1</dim>
				</port>
			</input>
			<output>
				<port id="2" precision="FP32">
					<dim>1</dim>
					<dim>64</dim>
					<dim>130</dim>
					<dim>102</dim>
				</port>
			</output>
		</layer>
		<layer id="48" name="Constant_4831" type="Const" version="opset1">
			<data element_type="f32" shape="1, 64, 1, 1" offset="45005" size="256" />
			<output>
				<port id="0" precision="FP32">
					<dim>1</dim>
					<dim>64</dim>
					<dim>1</dim>
					<dim>1</dim>
				</port>
			</output>
		</layer>
		<layer id="49" name="302" type="Add" version="opset1">
			<data auto_broadcast="numpy" />
			<input>
				<port id="0" precision="FP32">
					<dim>1</dim>
					<dim>64</dim>
					<dim>130</dim>
					<dim>102</dim>
				</port>
				<port id="1" precision="FP32">
					<dim>1</dim>
					<dim>64</dim>
					<dim>1</dim>
					<dim>1</dim>
				</port>
			</input>
			<output>
				<port id="2" precision="FP32" names="302">
					<dim>1</dim>
					<dim>64</dim>
					<dim>130</dim>
					<dim>102</dim>
				</port>
			</output>
		</layer>
		<layer id="50" name="Constant_5206" type="Const" version="opset1">
			<data element_type="f32" shape="1, 1, 1, 1" offset="2632" size="4" />
			<output>
				<port id="0" precision="FP32">
					<dim>1</dim>
					<dim>1</dim>
					<dim>1</dim>
					<dim>1</dim>
				</port>
			</output>
		</layer>
		<layer id="51" name="Constant_5207" type="Const" version="opset1">
			<data element_type="f32" shape="1, 1, 1, 1" offset="45261" size="4" />
			<output>
				<port id="0" precision="FP32">
					<dim>1</dim>
					<dim>1</dim>
					<dim>1</dim>
					<dim>1</dim>
				</port>
			</output>
		</layer>
		<layer id="52" name="Constant_5208" type="Const" version="opset1">
			<data element_type="f32" shape="1, 1, 1, 1" offset="2632" size="4" />
			<output>
				<port id="0" precision="FP32">
					<dim>1</dim>
					<dim>1</dim>
					<dim>1</dim>
					<dim>1</dim>
				</port>
			</output>
		</layer>
		<layer id="53" name="Constant_5209" type="Const" version="opset1">
			<data element_type="f32" shape="1, 1, 1, 1" offset="45261" size="4" />
			<output>
				<port id="0" precision="FP32">
					<dim>1</dim>
					<dim>1</dim>
					<dim>1</dim>
					<dim>1</dim>
				</port>
			</output>
		</layer>
		<layer id="54" name="306" type="FakeQuantize" version="opset1">
			<data levels="256" auto_broadcast="numpy" />
			<input>
				<port id="0" precision="FP32">
					<dim>1</dim>
					<dim>64</dim>
					<dim>130</dim>
					<dim>102</dim>
				</port>
				<port id="1" precision="FP32">
					<dim>1</dim>
					<dim>1</dim>
					<dim>1</dim>
					<dim>1</dim>
				</port>
				<port id="2" precision="FP32">
					<dim>1</dim>
					<dim>1</dim>
					<dim>1</dim>
					<dim>1</dim>
				</port>
				<port id="3" precision="FP32">
					<dim>1</dim>
					<dim>1</dim>
					<dim>1</dim>
					<dim>1</dim>
				</port>
				<port id="4" precision="FP32">
					<dim>1</dim>
					<dim>1</dim>
					<dim>1</dim>
					<dim>1</dim>
				</port>
			</input>
			<output>
				<port id="5" precision="FP32" names="306">
					<dim>1</dim>
					<dim>64</dim>
					<dim>130</dim>
					<dim>102</dim>
				</port>
			</output>
		</layer>
		<layer id="55" name="307" type="MaxPool" version="opset8">
			<data strides="2, 2" dilations="1, 1" pads_begin="0, 0" pads_end="0, 0" kernel="2, 2" rounding_type="floor" auto_pad="explicit" index_element_type="i64" axis="0" />
			<input>
				<port id="0" precision="FP32">
					<dim>1</dim>
					<dim>64</dim>
					<dim>130</dim>
					<dim>102</dim>
				</port>
			</input>
			<output>
				<port id="1" precision="FP32" names="307">
					<dim>1</dim>
					<dim>64</dim>
					<dim>65</dim>
					<dim>51</dim>
				</port>
				<port id="2" precision="I64">
					<dim>1</dim>
					<dim>64</dim>
					<dim>65</dim>
					<dim>51</dim>
				</port>
			</output>
		</layer>
		<layer id="56" name="Constant_5729" type="Const" version="opset1">
			<data element_type="i8" shape="64, 1, 3, 3" offset="45265" size="576" />
			<output>
				<port id="0" precision="I8">
					<dim>64</dim>
					<dim>1</dim>
					<dim>3</dim>
					<dim>3</dim>
				</port>
			</output>
		</layer>
		<layer id="57" name="Convert_5730" type="Convert" version="opset1">
			<data destination_type="f32" />
			<input>
				<port id="0" precision="I8">
					<dim>64</dim>
					<dim>1</dim>
					<dim>3</dim>
					<dim>3</dim>
				</port>
			</input>
			<output>
				<port id="1" precision="FP32">
					<dim>64</dim>
					<dim>1</dim>
					<dim>3</dim>
					<dim>3</dim>
				</port>
			</output>
		</layer>
		<layer id="58" name="Constant_5731" type="Const" version="opset1">
			<data element_type="f32" shape="1, 1, 1, 1" offset="45841" size="4" />
			<output>
				<port id="0" precision="FP32">
					<dim>1</dim>
					<dim>1</dim>
					<dim>1</dim>
					<dim>1</dim>
				</port>
			</output>
		</layer>
		<layer id="59" name="310" type="Multiply" version="opset1">
			<data auto_broadcast="numpy" />
			<input>
				<port id="0" precision="FP32">
					<dim>64</dim>
					<dim>1</dim>
					<dim>3</dim>
					<dim>3</dim>
				</port>
				<port id="1" precision="FP32">
					<dim>1</dim>
					<dim>1</dim>
					<dim>1</dim>
					<dim>1</dim>
				</port>
			</input>
			<output>
				<port id="2" precision="FP32" names="310">
					<dim>64</dim>
					<dim>1</dim>
					<dim>3</dim>
					<dim>3</dim>
				</port>
			</output>
		</layer>
		<layer id="60" name="Reshape_4960" type="Const" version="opset1">
			<data element_type="f32" shape="64, 1, 1, 1" offset="45845" size="256" />
			<output>
				<port id="0" precision="FP32">
					<dim>64</dim>
					<dim>1</dim>
					<dim>1</dim>
					<dim>1</dim>
				</port>
			</output>
		</layer>
		<layer id="61" name="Multiply_4961" type="Multiply" version="opset1">
			<data auto_broadcast="numpy" />
			<input>
				<port id="0" precision="FP32">
					<dim>64</dim>
					<dim>1</dim>
					<dim>3</dim>
					<dim>3</dim>
				</port>
				<port id="1" precision="FP32">
					<dim>64</dim>
					<dim>1</dim>
					<dim>1</dim>
					<dim>1</dim>
				</port>
			</input>
			<output>
				<port id="2" precision="FP32">
					<dim>64</dim>
					<dim>1</dim>
					<dim>3</dim>
					<dim>3</dim>
				</port>
			</output>
		</layer>
		<layer id="62" name="Constant_320" type="Const" version="opset1">
			<data element_type="i64" shape="1" offset="46101" size="8" />
			<output>
				<port id="0" precision="I64">
					<dim>1</dim>
				</port>
			</output>
		</layer>
		<layer id="63" name="ShapeOf_321" type="ShapeOf" version="opset3">
			<data output_type="i64" />
			<input>
				<port id="0" precision="FP32">
					<dim>64</dim>
					<dim>1</dim>
					<dim>3</dim>
					<dim>3</dim>
				</port>
			</input>
			<output>
				<port id="1" precision="I64">
					<dim>4</dim>
				</port>
			</output>
		</layer>
		<layer id="64" name="Constant_318" type="Const" version="opset1">
			<data element_type="i64" shape="" offset="46109" size="8" />
			<output>
				<port id="0" precision="I64" />
			</output>
		</layer>
		<layer id="65" name="Constant_319" type="Const" version="opset1">
			<data element_type="i64" shape="2" offset="46117" size="16" />
			<output>
				<port id="0" precision="I64">
					<dim>2</dim>
				</port>
			</output>
		</layer>
		<layer id="66" name="VariadicSplit_322" type="VariadicSplit" version="opset1">
			<input>
				<port id="0" precision="I64">
					<dim>4</dim>
				</port>
				<port id="1" precision="I64" />
				<port id="2" precision="I64">
					<dim>2</dim>
				</port>
			</input>
			<output>
				<port id="3" precision="I64">
					<dim>1</dim>
				</port>
				<port id="4" precision="I64">
					<dim>3</dim>
				</port>
			</output>
		</layer>
		<layer id="67" name="Divide_323" type="Divide" version="opset1">
			<data auto_broadcast="numpy" m_pythondiv="true" />
			<input>
				<port id="0" precision="I64">
					<dim>1</dim>
				</port>
				<port id="1" precision="I64">
					<dim>1</dim>
				</port>
			</input>
			<output>
				<port id="2" precision="I64">
					<dim>1</dim>
				</port>
			</output>
		</layer>
		<layer id="68" name="Concat_324" type="Concat" version="opset1">
			<data axis="0" />
			<input>
				<port id="0" precision="I64">
					<dim>1</dim>
				</port>
				<port id="1" precision="I64">
					<dim>1</dim>
				</port>
				<port id="2" precision="I64">
					<dim>3</dim>
				</port>
			</input>
			<output>
				<port id="3" precision="I64">
					<dim>5</dim>
				</port>
			</output>
		</layer>
		<layer id="69" name="Reshape_325" type="Reshape" version="opset1">
			<data special_zero="false" />
			<input>
				<port id="0" precision="FP32">
					<dim>64</dim>
					<dim>1</dim>
					<dim>3</dim>
					<dim>3</dim>
				</port>
				<port id="1" precision="I64">
					<dim>5</dim>
				</port>
			</input>
			<output>
				<port id="2" precision="FP32">
					<dim>64</dim>
					<dim>1</dim>
					<dim>1</dim>
					<dim>3</dim>
					<dim>3</dim>
				</port>
			</output>
		</layer>
		<layer id="70" name="Multiply_4833" type="GroupConvolution" version="opset1">
			<data strides="1, 1" pads_begin="1, 1" pads_end="1, 1" dilations="1, 1" auto_pad="explicit" />
			<input>
				<port id="0" precision="FP32">
					<dim>1</dim>
					<dim>64</dim>
					<dim>65</dim>
					<dim>51</dim>
				</port>
				<port id="1" precision="FP32">
					<dim>64</dim>
					<dim>1</dim>
					<dim>1</dim>
					<dim>3</dim>
					<dim>3</dim>
				</port>
			</input>
			<output>
				<port id="2" precision="FP32" names="311">
					<dim>1</dim>
					<dim>64</dim>
					<dim>65</dim>
					<dim>51</dim>
				</port>
			</output>
		</layer>
		<layer id="71" name="Constant_4838" type="Const" version="opset1">
			<data element_type="f32" shape="1, 64, 1, 1" offset="46133" size="256" />
			<output>
				<port id="0" precision="FP32">
					<dim>1</dim>
					<dim>64</dim>
					<dim>1</dim>
					<dim>1</dim>
				</port>
			</output>
		</layer>
		<layer id="72" name="312" type="Add" version="opset1">
			<data auto_broadcast="numpy" />
			<input>
				<port id="0" precision="FP32">
					<dim>1</dim>
					<dim>64</dim>
					<dim>65</dim>
					<dim>51</dim>
				</port>
				<port id="1" precision="FP32">
					<dim>1</dim>
					<dim>64</dim>
					<dim>1</dim>
					<dim>1</dim>
				</port>
			</input>
			<output>
				<port id="2" precision="FP32" names="312">
					<dim>1</dim>
					<dim>64</dim>
					<dim>65</dim>
					<dim>51</dim>
				</port>
			</output>
		</layer>
		<layer id="73" name="Constant_5214" type="Const" version="opset1">
			<data element_type="f32" shape="1, 1, 1, 1" offset="2632" size="4" />
			<output>
				<port id="0" precision="FP32">
					<dim>1</dim>
					<dim>1</dim>
					<dim>1</dim>
					<dim>1</dim>
				</port>
			</output>
		</layer>
		<layer id="74" name="Constant_5215" type="Const" version="opset1">
			<data element_type="f32" shape="1, 1, 1, 1" offset="46389" size="4" />
			<output>
				<port id="0" precision="FP32">
					<dim>1</dim>
					<dim>1</dim>
					<dim>1</dim>
					<dim>1</dim>
				</port>
			</output>
		</layer>
		<layer id="75" name="Constant_5216" type="Const" version="opset1">
			<data element_type="f32" shape="1, 1, 1, 1" offset="2632" size="4" />
			<output>
				<port id="0" precision="FP32">
					<dim>1</dim>
					<dim>1</dim>
					<dim>1</dim>
					<dim>1</dim>
				</port>
			</output>
		</layer>
		<layer id="76" name="Constant_5217" type="Const" version="opset1">
			<data element_type="f32" shape="1, 1, 1, 1" offset="46389" size="4" />
			<output>
				<port id="0" precision="FP32">
					<dim>1</dim>
					<dim>1</dim>
					<dim>1</dim>
					<dim>1</dim>
				</port>
			</output>
		</layer>
		<layer id="77" name="316" type="FakeQuantize" version="opset1">
			<data levels="256" auto_broadcast="numpy" />
			<input>
				<port id="0" precision="FP32">
					<dim>1</dim>
					<dim>64</dim>
					<dim>65</dim>
					<dim>51</dim>
				</port>
				<port id="1" precision="FP32">
					<dim>1</dim>
					<dim>1</dim>
					<dim>1</dim>
					<dim>1</dim>
				</port>
				<port id="2" precision="FP32">
					<dim>1</dim>
					<dim>1</dim>
					<dim>1</dim>
					<dim>1</dim>
				</port>
				<port id="3" precision="FP32">
					<dim>1</dim>
					<dim>1</dim>
					<dim>1</dim>
					<dim>1</dim>
				</port>
				<port id="4" precision="FP32">
					<dim>1</dim>
					<dim>1</dim>
					<dim>1</dim>
					<dim>1</dim>
				</port>
			</input>
			<output>
				<port id="5" precision="FP32" names="316">
					<dim>1</dim>
					<dim>64</dim>
					<dim>65</dim>
					<dim>51</dim>
				</port>
			</output>
		</layer>
		<layer id="78" name="Constant_5733" type="Const" version="opset1">
			<data element_type="i8" shape="128, 64, 1, 1" offset="46393" size="8192" />
			<output>
				<port id="0" precision="I8">
					<dim>128</dim>
					<dim>64</dim>
					<dim>1</dim>
					<dim>1</dim>
				</port>
			</output>
		</layer>
		<layer id="79" name="Convert_5734" type="Convert" version="opset1">
			<data destination_type="f32" />
			<input>
				<port id="0" precision="I8">
					<dim>128</dim>
					<dim>64</dim>
					<dim>1</dim>
					<dim>1</dim>
				</port>
			</input>
			<output>
				<port id="1" precision="FP32">
					<dim>128</dim>
					<dim>64</dim>
					<dim>1</dim>
					<dim>1</dim>
				</port>
			</output>
		</layer>
		<layer id="80" name="Constant_5735" type="Const" version="opset1">
			<data element_type="f32" shape="128, 1, 1, 1" offset="54585" size="512" />
			<output>
				<port id="0" precision="FP32">
					<dim>128</dim>
					<dim>1</dim>
					<dim>1</dim>
					<dim>1</dim>
				</port>
			</output>
		</layer>
		<layer id="81" name="Multiply_4964" type="Multiply" version="opset1">
			<data auto_broadcast="numpy" />
			<input>
				<port id="0" precision="FP32">
					<dim>128</dim>
					<dim>64</dim>
					<dim>1</dim>
					<dim>1</dim>
				</port>
				<port id="1" precision="FP32">
					<dim>128</dim>
					<dim>1</dim>
					<dim>1</dim>
					<dim>1</dim>
				</port>
			</input>
			<output>
				<port id="2" precision="FP32">
					<dim>128</dim>
					<dim>64</dim>
					<dim>1</dim>
					<dim>1</dim>
				</port>
			</output>
		</layer>
		<layer id="82" name="Multiply_4840" type="Convolution" version="opset1">
			<data strides="1, 1" dilations="1, 1" pads_begin="1, 1" pads_end="1, 1" auto_pad="explicit" />
			<input>
				<port id="0" precision="FP32">
					<dim>1</dim>
					<dim>64</dim>
					<dim>65</dim>
					<dim>51</dim>
				</port>
				<port id="1" precision="FP32">
					<dim>128</dim>
					<dim>64</dim>
					<dim>1</dim>
					<dim>1</dim>
				</port>
			</input>
			<output>
				<port id="2" precision="FP32">
					<dim>1</dim>
					<dim>128</dim>
					<dim>67</dim>
					<dim>53</dim>
				</port>
			</output>
		</layer>
		<layer id="83" name="Constant_4845" type="Const" version="opset1">
			<data element_type="f32" shape="1, 128, 1, 1" offset="55097" size="512" />
			<output>
				<port id="0" precision="FP32">
					<dim>1</dim>
					<dim>128</dim>
					<dim>1</dim>
					<dim>1</dim>
				</port>
			</output>
		</layer>
		<layer id="84" name="321" type="Add" version="opset1">
			<data auto_broadcast="numpy" />
			<input>
				<port id="0" precision="FP32">
					<dim>1</dim>
					<dim>128</dim>
					<dim>67</dim>
					<dim>53</dim>
				</port>
				<port id="1" precision="FP32">
					<dim>1</dim>
					<dim>128</dim>
					<dim>1</dim>
					<dim>1</dim>
				</port>
			</input>
			<output>
				<port id="2" precision="FP32" names="321">
					<dim>1</dim>
					<dim>128</dim>
					<dim>67</dim>
					<dim>53</dim>
				</port>
			</output>
		</layer>
		<layer id="85" name="Constant_5220" type="Const" version="opset1">
			<data element_type="f32" shape="1, 1, 1, 1" offset="2632" size="4" />
			<output>
				<port id="0" precision="FP32">
					<dim>1</dim>
					<dim>1</dim>
					<dim>1</dim>
					<dim>1</dim>
				</port>
			</output>
		</layer>
		<layer id="86" name="Constant_5221" type="Const" version="opset1">
			<data element_type="f32" shape="1, 1, 1, 1" offset="55609" size="4" />
			<output>
				<port id="0" precision="FP32">
					<dim>1</dim>
					<dim>1</dim>
					<dim>1</dim>
					<dim>1</dim>
				</port>
			</output>
		</layer>
		<layer id="87" name="Constant_5222" type="Const" version="opset1">
			<data element_type="f32" shape="1, 1, 1, 1" offset="2632" size="4" />
			<output>
				<port id="0" precision="FP32">
					<dim>1</dim>
					<dim>1</dim>
					<dim>1</dim>
					<dim>1</dim>
				</port>
			</output>
		</layer>
		<layer id="88" name="Constant_5223" type="Const" version="opset1">
			<data element_type="f32" shape="1, 1, 1, 1" offset="55609" size="4" />
			<output>
				<port id="0" precision="FP32">
					<dim>1</dim>
					<dim>1</dim>
					<dim>1</dim>
					<dim>1</dim>
				</port>
			</output>
		</layer>
		<layer id="89" name="325" type="FakeQuantize" version="opset1">
			<data levels="256" auto_broadcast="numpy" />
			<input>
				<port id="0" precision="FP32">
					<dim>1</dim>
					<dim>128</dim>
					<dim>67</dim>
					<dim>53</dim>
				</port>
				<port id="1" precision="FP32">
					<dim>1</dim>
					<dim>1</dim>
					<dim>1</dim>
					<dim>1</dim>
				</port>
				<port id="2" precision="FP32">
					<dim>1</dim>
					<dim>1</dim>
					<dim>1</dim>
					<dim>1</dim>
				</port>
				<port id="3" precision="FP32">
					<dim>1</dim>
					<dim>1</dim>
					<dim>1</dim>
					<dim>1</dim>
				</port>
				<port id="4" precision="FP32">
					<dim>1</dim>
					<dim>1</dim>
					<dim>1</dim>
					<dim>1</dim>
				</port>
			</input>
			<output>
				<port id="5" precision="FP32" names="325">
					<dim>1</dim>
					<dim>128</dim>
					<dim>67</dim>
					<dim>53</dim>
				</port>
			</output>
		</layer>
		<layer id="90" name="Constant_5737" type="Const" version="opset1">
			<data element_type="i8" shape="128, 1, 3, 3" offset="55613" size="1152" />
			<output>
				<port id="0" precision="I8">
					<dim>128</dim>
					<dim>1</dim>
					<dim>3</dim>
					<dim>3</dim>
				</port>
			</output>
		</layer>
		<layer id="91" name="Convert_5738" type="Convert" version="opset1">
			<data destination_type="f32" />
			<input>
				<port id="0" precision="I8">
					<dim>128</dim>
					<dim>1</dim>
					<dim>3</dim>
					<dim>3</dim>
				</port>
			</input>
			<output>
				<port id="1" precision="FP32">
					<dim>128</dim>
					<dim>1</dim>
					<dim>3</dim>
					<dim>3</dim>
				</port>
			</output>
		</layer>
		<layer id="92" name="Constant_5739" type="Const" version="opset1">
			<data element_type="f32" shape="1, 1, 1, 1" offset="56765" size="4" />
			<output>
				<port id="0" precision="FP32">
					<dim>1</dim>
					<dim>1</dim>
					<dim>1</dim>
					<dim>1</dim>
				</port>
			</output>
		</layer>
		<layer id="93" name="328" type="Multiply" version="opset1">
			<data auto_broadcast="numpy" />
			<input>
				<port id="0" precision="FP32">
					<dim>128</dim>
					<dim>1</dim>
					<dim>3</dim>
					<dim>3</dim>
				</port>
				<port id="1" precision="FP32">
					<dim>1</dim>
					<dim>1</dim>
					<dim>1</dim>
					<dim>1</dim>
				</port>
			</input>
			<output>
				<port id="2" precision="FP32" names="328">
					<dim>128</dim>
					<dim>1</dim>
					<dim>3</dim>
					<dim>3</dim>
				</port>
			</output>
		</layer>
		<layer id="94" name="Reshape_4967" type="Const" version="opset1">
			<data element_type="f32" shape="128, 1, 1, 1" offset="56769" size="512" />
			<output>
				<port id="0" precision="FP32">
					<dim>128</dim>
					<dim>1</dim>
					<dim>1</dim>
					<dim>1</dim>
				</port>
			</output>
		</layer>
		<layer id="95" name="Multiply_4968" type="Multiply" version="opset1">
			<data auto_broadcast="numpy" />
			<input>
				<port id="0" precision="FP32">
					<dim>128</dim>
					<dim>1</dim>
					<dim>3</dim>
					<dim>3</dim>
				</port>
				<port id="1" precision="FP32">
					<dim>128</dim>
					<dim>1</dim>
					<dim>1</dim>
					<dim>1</dim>
				</port>
			</input>
			<output>
				<port id="2" precision="FP32">
					<dim>128</dim>
					<dim>1</dim>
					<dim>3</dim>
					<dim>3</dim>
				</port>
			</output>
		</layer>
		<layer id="96" name="Constant_387" type="Const" version="opset1">
			<data element_type="i64" shape="1" offset="57281" size="8" />
			<output>
				<port id="0" precision="I64">
					<dim>1</dim>
				</port>
			</output>
		</layer>
		<layer id="97" name="ShapeOf_388" type="ShapeOf" version="opset3">
			<data output_type="i64" />
			<input>
				<port id="0" precision="FP32">
					<dim>128</dim>
					<dim>1</dim>
					<dim>3</dim>
					<dim>3</dim>
				</port>
			</input>
			<output>
				<port id="1" precision="I64">
					<dim>4</dim>
				</port>
			</output>
		</layer>
		<layer id="98" name="Constant_385" type="Const" version="opset1">
			<data element_type="i64" shape="" offset="46109" size="8" />
			<output>
				<port id="0" precision="I64" />
			</output>
		</layer>
		<layer id="99" name="Constant_386" type="Const" version="opset1">
			<data element_type="i64" shape="2" offset="46117" size="16" />
			<output>
				<port id="0" precision="I64">
					<dim>2</dim>
				</port>
			</output>
		</layer>
		<layer id="100" name="VariadicSplit_389" type="VariadicSplit" version="opset1">
			<input>
				<port id="0" precision="I64">
					<dim>4</dim>
				</port>
				<port id="1" precision="I64" />
				<port id="2" precision="I64">
					<dim>2</dim>
				</port>
			</input>
			<output>
				<port id="3" precision="I64">
					<dim>1</dim>
				</port>
				<port id="4" precision="I64">
					<dim>3</dim>
				</port>
			</output>
		</layer>
		<layer id="101" name="Divide_390" type="Divide" version="opset1">
			<data auto_broadcast="numpy" m_pythondiv="true" />
			<input>
				<port id="0" precision="I64">
					<dim>1</dim>
				</port>
				<port id="1" precision="I64">
					<dim>1</dim>
				</port>
			</input>
			<output>
				<port id="2" precision="I64">
					<dim>1</dim>
				</port>
			</output>
		</layer>
		<layer id="102" name="Concat_391" type="Concat" version="opset1">
			<data axis="0" />
			<input>
				<port id="0" precision="I64">
					<dim>1</dim>
				</port>
				<port id="1" precision="I64">
					<dim>1</dim>
				</port>
				<port id="2" precision="I64">
					<dim>3</dim>
				</port>
			</input>
			<output>
				<port id="3" precision="I64">
					<dim>5</dim>
				</port>
			</output>
		</layer>
		<layer id="103" name="Reshape_392" type="Reshape" version="opset1">
			<data special_zero="false" />
			<input>
				<port id="0" precision="FP32">
					<dim>128</dim>
					<dim>1</dim>
					<dim>3</dim>
					<dim>3</dim>
				</port>
				<port id="1" precision="I64">
					<dim>5</dim>
				</port>
			</input>
			<output>
				<port id="2" precision="FP32">
					<dim>128</dim>
					<dim>1</dim>
					<dim>1</dim>
					<dim>3</dim>
					<dim>3</dim>
				</port>
			</output>
		</layer>
		<layer id="104" name="Multiply_4847" type="GroupConvolution" version="opset1">
			<data strides="1, 1" pads_begin="1, 1" pads_end="1, 1" dilations="1, 1" auto_pad="explicit" />
			<input>
				<port id="0" precision="FP32">
					<dim>1</dim>
					<dim>128</dim>
					<dim>67</dim>
					<dim>53</dim>
				</port>
				<port id="1" precision="FP32">
					<dim>128</dim>
					<dim>1</dim>
					<dim>1</dim>
					<dim>3</dim>
					<dim>3</dim>
				</port>
			</input>
			<output>
				<port id="2" precision="FP32" names="329">
					<dim>1</dim>
					<dim>128</dim>
					<dim>67</dim>
					<dim>53</dim>
				</port>
			</output>
		</layer>
		<layer id="105" name="Constant_4852" type="Const" version="opset1">
			<data element_type="f32" shape="1, 128, 1, 1" offset="57289" size="512" />
			<output>
				<port id="0" precision="FP32">
					<dim>1</dim>
					<dim>128</dim>
					<dim>1</dim>
					<dim>1</dim>
				</port>
			</output>
		</layer>
		<layer id="106" name="330" type="Add" version="opset1">
			<data auto_broadcast="numpy" />
			<input>
				<port id="0" precision="FP32">
					<dim>1</dim>
					<dim>128</dim>
					<dim>67</dim>
					<dim>53</dim>
				</port>
				<port id="1" precision="FP32">
					<dim>1</dim>
					<dim>128</dim>
					<dim>1</dim>
					<dim>1</dim>
				</port>
			</input>
			<output>
				<port id="2" precision="FP32" names="330">
					<dim>1</dim>
					<dim>128</dim>
					<dim>67</dim>
					<dim>53</dim>
				</port>
			</output>
		</layer>
		<layer id="107" name="Constant_5228" type="Const" version="opset1">
			<data element_type="f32" shape="1, 1, 1, 1" offset="2632" size="4" />
			<output>
				<port id="0" precision="FP32">
					<dim>1</dim>
					<dim>1</dim>
					<dim>1</dim>
					<dim>1</dim>
				</port>
			</output>
		</layer>
		<layer id="108" name="Constant_5229" type="Const" version="opset1">
			<data element_type="f32" shape="1, 1, 1, 1" offset="57801" size="4" />
			<output>
				<port id="0" precision="FP32">
					<dim>1</dim>
					<dim>1</dim>
					<dim>1</dim>
					<dim>1</dim>
				</port>
			</output>
		</layer>
		<layer id="109" name="Constant_5230" type="Const" version="opset1">
			<data element_type="f32" shape="1, 1, 1, 1" offset="2632" size="4" />
			<output>
				<port id="0" precision="FP32">
					<dim>1</dim>
					<dim>1</dim>
					<dim>1</dim>
					<dim>1</dim>
				</port>
			</output>
		</layer>
		<layer id="110" name="Constant_5231" type="Const" version="opset1">
			<data element_type="f32" shape="1, 1, 1, 1" offset="57801" size="4" />
			<output>
				<port id="0" precision="FP32">
					<dim>1</dim>
					<dim>1</dim>
					<dim>1</dim>
					<dim>1</dim>
				</port>
			</output>
		</layer>
		<layer id="111" name="334" type="FakeQuantize" version="opset1">
			<data levels="256" auto_broadcast="numpy" />
			<input>
				<port id="0" precision="FP32">
					<dim>1</dim>
					<dim>128</dim>
					<dim>67</dim>
					<dim>53</dim>
				</port>
				<port id="1" precision="FP32">
					<dim>1</dim>
					<dim>1</dim>
					<dim>1</dim>
					<dim>1</dim>
				</port>
				<port id="2" precision="FP32">
					<dim>1</dim>
					<dim>1</dim>
					<dim>1</dim>
					<dim>1</dim>
				</port>
				<port id="3" precision="FP32">
					<dim>1</dim>
					<dim>1</dim>
					<dim>1</dim>
					<dim>1</dim>
				</port>
				<port id="4" precision="FP32">
					<dim>1</dim>
					<dim>1</dim>
					<dim>1</dim>
					<dim>1</dim>
				</port>
			</input>
			<output>
				<port id="5" precision="FP32" names="334">
					<dim>1</dim>
					<dim>128</dim>
					<dim>67</dim>
					<dim>53</dim>
				</port>
			</output>
		</layer>
		<layer id="112" name="Constant_5741" type="Const" version="opset1">
			<data element_type="i8" shape="128, 128, 1, 1" offset="57805" size="16384" />
			<output>
				<port id="0" precision="I8">
					<dim>128</dim>
					<dim>128</dim>
					<dim>1</dim>
					<dim>1</dim>
				</port>
			</output>
		</layer>
		<layer id="113" name="Convert_5742" type="Convert" version="opset1">
			<data destination_type="f32" />
			<input>
				<port id="0" precision="I8">
					<dim>128</dim>
					<dim>128</dim>
					<dim>1</dim>
					<dim>1</dim>
				</port>
			</input>
			<output>
				<port id="1" precision="FP32">
					<dim>128</dim>
					<dim>128</dim>
					<dim>1</dim>
					<dim>1</dim>
				</port>
			</output>
		</layer>
		<layer id="114" name="Constant_5743" type="Const" version="opset1">
			<data element_type="f32" shape="128, 1, 1, 1" offset="74189" size="512" />
			<output>
				<port id="0" precision="FP32">
					<dim>128</dim>
					<dim>1</dim>
					<dim>1</dim>
					<dim>1</dim>
				</port>
			</output>
		</layer>
		<layer id="115" name="Multiply_4971" type="Multiply" version="opset1">
			<data auto_broadcast="numpy" />
			<input>
				<port id="0" precision="FP32">
					<dim>128</dim>
					<dim>128</dim>
					<dim>1</dim>
					<dim>1</dim>
				</port>
				<port id="1" precision="FP32">
					<dim>128</dim>
					<dim>1</dim>
					<dim>1</dim>
					<dim>1</dim>
				</port>
			</input>
			<output>
				<port id="2" precision="FP32">
					<dim>128</dim>
					<dim>128</dim>
					<dim>1</dim>
					<dim>1</dim>
				</port>
			</output>
		</layer>
		<layer id="116" name="Multiply_4854" type="Convolution" version="opset1">
			<data strides="1, 1" dilations="1, 1" pads_begin="1, 1" pads_end="1, 1" auto_pad="explicit" />
			<input>
				<port id="0" precision="FP32">
					<dim>1</dim>
					<dim>128</dim>
					<dim>67</dim>
					<dim>53</dim>
				</port>
				<port id="1" precision="FP32">
					<dim>128</dim>
					<dim>128</dim>
					<dim>1</dim>
					<dim>1</dim>
				</port>
			</input>
			<output>
				<port id="2" precision="FP32">
					<dim>1</dim>
					<dim>128</dim>
					<dim>69</dim>
					<dim>55</dim>
				</port>
			</output>
		</layer>
		<layer id="117" name="Constant_4859" type="Const" version="opset1">
			<data element_type="f32" shape="1, 128, 1, 1" offset="74701" size="512" />
			<output>
				<port id="0" precision="FP32">
					<dim>1</dim>
					<dim>128</dim>
					<dim>1</dim>
					<dim>1</dim>
				</port>
			</output>
		</layer>
		<layer id="118" name="339" type="Add" version="opset1">
			<data auto_broadcast="numpy" />
			<input>
				<port id="0" precision="FP32">
					<dim>1</dim>
					<dim>128</dim>
					<dim>69</dim>
					<dim>55</dim>
				</port>
				<port id="1" precision="FP32">
					<dim>1</dim>
					<dim>128</dim>
					<dim>1</dim>
					<dim>1</dim>
				</port>
			</input>
			<output>
				<port id="2" precision="FP32" names="339">
					<dim>1</dim>
					<dim>128</dim>
					<dim>69</dim>
					<dim>55</dim>
				</port>
			</output>
		</layer>
		<layer id="119" name="Constant_5234" type="Const" version="opset1">
			<data element_type="f32" shape="1, 1, 1, 1" offset="2632" size="4" />
			<output>
				<port id="0" precision="FP32">
					<dim>1</dim>
					<dim>1</dim>
					<dim>1</dim>
					<dim>1</dim>
				</port>
			</output>
		</layer>
		<layer id="120" name="Constant_5235" type="Const" version="opset1">
			<data element_type="f32" shape="1, 1, 1, 1" offset="75213" size="4" />
			<output>
				<port id="0" precision="FP32">
					<dim>1</dim>
					<dim>1</dim>
					<dim>1</dim>
					<dim>1</dim>
				</port>
			</output>
		</layer>
		<layer id="121" name="Constant_5236" type="Const" version="opset1">
			<data element_type="f32" shape="1, 1, 1, 1" offset="2632" size="4" />
			<output>
				<port id="0" precision="FP32">
					<dim>1</dim>
					<dim>1</dim>
					<dim>1</dim>
					<dim>1</dim>
				</port>
			</output>
		</layer>
		<layer id="122" name="Constant_5237" type="Const" version="opset1">
			<data element_type="f32" shape="1, 1, 1, 1" offset="75213" size="4" />
			<output>
				<port id="0" precision="FP32">
					<dim>1</dim>
					<dim>1</dim>
					<dim>1</dim>
					<dim>1</dim>
				</port>
			</output>
		</layer>
		<layer id="123" name="343" type="FakeQuantize" version="opset1">
			<data levels="256" auto_broadcast="numpy" />
			<input>
				<port id="0" precision="FP32">
					<dim>1</dim>
					<dim>128</dim>
					<dim>69</dim>
					<dim>55</dim>
				</port>
				<port id="1" precision="FP32">
					<dim>1</dim>
					<dim>1</dim>
					<dim>1</dim>
					<dim>1</dim>
				</port>
				<port id="2" precision="FP32">
					<dim>1</dim>
					<dim>1</dim>
					<dim>1</dim>
					<dim>1</dim>
				</port>
				<port id="3" precision="FP32">
					<dim>1</dim>
					<dim>1</dim>
					<dim>1</dim>
					<dim>1</dim>
				</port>
				<port id="4" precision="FP32">
					<dim>1</dim>
					<dim>1</dim>
					<dim>1</dim>
					<dim>1</dim>
				</port>
			</input>
			<output>
				<port id="5" precision="FP32" names="343">
					<dim>1</dim>
					<dim>128</dim>
					<dim>69</dim>
					<dim>55</dim>
				</port>
			</output>
		</layer>
		<layer id="124" name="344" type="MaxPool" version="opset8">
			<data strides="2, 2" dilations="1, 1" pads_begin="0, 0" pads_end="0, 0" kernel="2, 2" rounding_type="floor" auto_pad="explicit" index_element_type="i64" axis="0" />
			<input>
				<port id="0" precision="FP32">
					<dim>1</dim>
					<dim>128</dim>
					<dim>69</dim>
					<dim>55</dim>
				</port>
			</input>
			<output>
				<port id="1" precision="FP32" names="344">
					<dim>1</dim>
					<dim>128</dim>
					<dim>34</dim>
					<dim>27</dim>
				</port>
				<port id="2" precision="I64">
					<dim>1</dim>
					<dim>128</dim>
					<dim>34</dim>
					<dim>27</dim>
				</port>
			</output>
		</layer>
		<layer id="125" name="Constant_5745" type="Const" version="opset1">
			<data element_type="i8" shape="128, 1, 3, 3" offset="75217" size="1152" />
			<output>
				<port id="0" precision="I8">
					<dim>128</dim>
					<dim>1</dim>
					<dim>3</dim>
					<dim>3</dim>
				</port>
			</output>
		</layer>
		<layer id="126" name="Convert_5746" type="Convert" version="opset1">
			<data destination_type="f32" />
			<input>
				<port id="0" precision="I8">
					<dim>128</dim>
					<dim>1</dim>
					<dim>3</dim>
					<dim>3</dim>
				</port>
			</input>
			<output>
				<port id="1" precision="FP32">
					<dim>128</dim>
					<dim>1</dim>
					<dim>3</dim>
					<dim>3</dim>
				</port>
			</output>
		</layer>
		<layer id="127" name="Constant_5747" type="Const" version="opset1">
			<data element_type="f32" shape="1, 1, 1, 1" offset="76369" size="4" />
			<output>
				<port id="0" precision="FP32">
					<dim>1</dim>
					<dim>1</dim>
					<dim>1</dim>
					<dim>1</dim>
				</port>
			</output>
		</layer>
		<layer id="128" name="347" type="Multiply" version="opset1">
			<data auto_broadcast="numpy" />
			<input>
				<port id="0" precision="FP32">
					<dim>128</dim>
					<dim>1</dim>
					<dim>3</dim>
					<dim>3</dim>
				</port>
				<port id="1" precision="FP32">
					<dim>1</dim>
					<dim>1</dim>
					<dim>1</dim>
					<dim>1</dim>
				</port>
			</input>
			<output>
				<port id="2" precision="FP32" names="347">
					<dim>128</dim>
					<dim>1</dim>
					<dim>3</dim>
					<dim>3</dim>
				</port>
			</output>
		</layer>
		<layer id="129" name="Reshape_4974" type="Const" version="opset1">
			<data element_type="f32" shape="128, 1, 1, 1" offset="76373" size="512" />
			<output>
				<port id="0" precision="FP32">
					<dim>128</dim>
					<dim>1</dim>
					<dim>1</dim>
					<dim>1</dim>
				</port>
			</output>
		</layer>
		<layer id="130" name="Multiply_4975" type="Multiply" version="opset1">
			<data auto_broadcast="numpy" />
			<input>
				<port id="0" precision="FP32">
					<dim>128</dim>
					<dim>1</dim>
					<dim>3</dim>
					<dim>3</dim>
				</port>
				<port id="1" precision="FP32">
					<dim>128</dim>
					<dim>1</dim>
					<dim>1</dim>
					<dim>1</dim>
				</port>
			</input>
			<output>
				<port id="2" precision="FP32">
					<dim>128</dim>
					<dim>1</dim>
					<dim>3</dim>
					<dim>3</dim>
				</port>
			</output>
		</layer>
		<layer id="131" name="Constant_455" type="Const" version="opset1">
			<data element_type="i64" shape="1" offset="57281" size="8" />
			<output>
				<port id="0" precision="I64">
					<dim>1</dim>
				</port>
			</output>
		</layer>
		<layer id="132" name="ShapeOf_456" type="ShapeOf" version="opset3">
			<data output_type="i64" />
			<input>
				<port id="0" precision="FP32">
					<dim>128</dim>
					<dim>1</dim>
					<dim>3</dim>
					<dim>3</dim>
				</port>
			</input>
			<output>
				<port id="1" precision="I64">
					<dim>4</dim>
				</port>
			</output>
		</layer>
		<layer id="133" name="Constant_453" type="Const" version="opset1">
			<data element_type="i64" shape="" offset="46109" size="8" />
			<output>
				<port id="0" precision="I64" />
			</output>
		</layer>
		<layer id="134" name="Constant_454" type="Const" version="opset1">
			<data element_type="i64" shape="2" offset="46117" size="16" />
			<output>
				<port id="0" precision="I64">
					<dim>2</dim>
				</port>
			</output>
		</layer>
		<layer id="135" name="VariadicSplit_457" type="VariadicSplit" version="opset1">
			<input>
				<port id="0" precision="I64">
					<dim>4</dim>
				</port>
				<port id="1" precision="I64" />
				<port id="2" precision="I64">
					<dim>2</dim>
				</port>
			</input>
			<output>
				<port id="3" precision="I64">
					<dim>1</dim>
				</port>
				<port id="4" precision="I64">
					<dim>3</dim>
				</port>
			</output>
		</layer>
		<layer id="136" name="Divide_458" type="Divide" version="opset1">
			<data auto_broadcast="numpy" m_pythondiv="true" />
			<input>
				<port id="0" precision="I64">
					<dim>1</dim>
				</port>
				<port id="1" precision="I64">
					<dim>1</dim>
				</port>
			</input>
			<output>
				<port id="2" precision="I64">
					<dim>1</dim>
				</port>
			</output>
		</layer>
		<layer id="137" name="Concat_459" type="Concat" version="opset1">
			<data axis="0" />
			<input>
				<port id="0" precision="I64">
					<dim>1</dim>
				</port>
				<port id="1" precision="I64">
					<dim>1</dim>
				</port>
				<port id="2" precision="I64">
					<dim>3</dim>
				</port>
			</input>
			<output>
				<port id="3" precision="I64">
					<dim>5</dim>
				</port>
			</output>
		</layer>
		<layer id="138" name="Reshape_460" type="Reshape" version="opset1">
			<data special_zero="false" />
			<input>
				<port id="0" precision="FP32">
					<dim>128</dim>
					<dim>1</dim>
					<dim>3</dim>
					<dim>3</dim>
				</port>
				<port id="1" precision="I64">
					<dim>5</dim>
				</port>
			</input>
			<output>
				<port id="2" precision="FP32">
					<dim>128</dim>
					<dim>1</dim>
					<dim>1</dim>
					<dim>3</dim>
					<dim>3</dim>
				</port>
			</output>
		</layer>
		<layer id="139" name="Multiply_4861" type="GroupConvolution" version="opset1">
			<data strides="1, 1" pads_begin="1, 1" pads_end="1, 1" dilations="1, 1" auto_pad="explicit" />
			<input>
				<port id="0" precision="FP32">
					<dim>1</dim>
					<dim>128</dim>
					<dim>34</dim>
					<dim>27</dim>
				</port>
				<port id="1" precision="FP32">
					<dim>128</dim>
					<dim>1</dim>
					<dim>1</dim>
					<dim>3</dim>
					<dim>3</dim>
				</port>
			</input>
			<output>
				<port id="2" precision="FP32" names="348">
					<dim>1</dim>
					<dim>128</dim>
					<dim>34</dim>
					<dim>27</dim>
				</port>
			</output>
		</layer>
		<layer id="140" name="Constant_4866" type="Const" version="opset1">
			<data element_type="f32" shape="1, 128, 1, 1" offset="76885" size="512" />
			<output>
				<port id="0" precision="FP32">
					<dim>1</dim>
					<dim>128</dim>
					<dim>1</dim>
					<dim>1</dim>
				</port>
			</output>
		</layer>
		<layer id="141" name="349" type="Add" version="opset1">
			<data auto_broadcast="numpy" />
			<input>
				<port id="0" precision="FP32">
					<dim>1</dim>
					<dim>128</dim>
					<dim>34</dim>
					<dim>27</dim>
				</port>
				<port id="1" precision="FP32">
					<dim>1</dim>
					<dim>128</dim>
					<dim>1</dim>
					<dim>1</dim>
				</port>
			</input>
			<output>
				<port id="2" precision="FP32" names="349">
					<dim>1</dim>
					<dim>128</dim>
					<dim>34</dim>
					<dim>27</dim>
				</port>
			</output>
		</layer>
		<layer id="142" name="Constant_5242" type="Const" version="opset1">
			<data element_type="f32" shape="1, 1, 1, 1" offset="2632" size="4" />
			<output>
				<port id="0" precision="FP32">
					<dim>1</dim>
					<dim>1</dim>
					<dim>1</dim>
					<dim>1</dim>
				</port>
			</output>
		</layer>
		<layer id="143" name="Constant_5243" type="Const" version="opset1">
			<data element_type="f32" shape="1, 1, 1, 1" offset="77397" size="4" />
			<output>
				<port id="0" precision="FP32">
					<dim>1</dim>
					<dim>1</dim>
					<dim>1</dim>
					<dim>1</dim>
				</port>
			</output>
		</layer>
		<layer id="144" name="Constant_5244" type="Const" version="opset1">
			<data element_type="f32" shape="1, 1, 1, 1" offset="2632" size="4" />
			<output>
				<port id="0" precision="FP32">
					<dim>1</dim>
					<dim>1</dim>
					<dim>1</dim>
					<dim>1</dim>
				</port>
			</output>
		</layer>
		<layer id="145" name="Constant_5245" type="Const" version="opset1">
			<data element_type="f32" shape="1, 1, 1, 1" offset="77397" size="4" />
			<output>
				<port id="0" precision="FP32">
					<dim>1</dim>
					<dim>1</dim>
					<dim>1</dim>
					<dim>1</dim>
				</port>
			</output>
		</layer>
		<layer id="146" name="353" type="FakeQuantize" version="opset1">
			<data levels="256" auto_broadcast="numpy" />
			<input>
				<port id="0" precision="FP32">
					<dim>1</dim>
					<dim>128</dim>
					<dim>34</dim>
					<dim>27</dim>
				</port>
				<port id="1" precision="FP32">
					<dim>1</dim>
					<dim>1</dim>
					<dim>1</dim>
					<dim>1</dim>
				</port>
				<port id="2" precision="FP32">
					<dim>1</dim>
					<dim>1</dim>
					<dim>1</dim>
					<dim>1</dim>
				</port>
				<port id="3" precision="FP32">
					<dim>1</dim>
					<dim>1</dim>
					<dim>1</dim>
					<dim>1</dim>
				</port>
				<port id="4" precision="FP32">
					<dim>1</dim>
					<dim>1</dim>
					<dim>1</dim>
					<dim>1</dim>
				</port>
			</input>
			<output>
				<port id="5" precision="FP32" names="353">
					<dim>1</dim>
					<dim>128</dim>
					<dim>34</dim>
					<dim>27</dim>
				</port>
			</output>
		</layer>
		<layer id="147" name="Constant_5749" type="Const" version="opset1">
			<data element_type="i8" shape="256, 128, 1, 1" offset="77401" size="32768" />
			<output>
				<port id="0" precision="I8">
					<dim>256</dim>
					<dim>128</dim>
					<dim>1</dim>
					<dim>1</dim>
				</port>
			</output>
		</layer>
		<layer id="148" name="Convert_5750" type="Convert" version="opset1">
			<data destination_type="f32" />
			<input>
				<port id="0" precision="I8">
					<dim>256</dim>
					<dim>128</dim>
					<dim>1</dim>
					<dim>1</dim>
				</port>
			</input>
			<output>
				<port id="1" precision="FP32">
					<dim>256</dim>
					<dim>128</dim>
					<dim>1</dim>
					<dim>1</dim>
				</port>
			</output>
		</layer>
		<layer id="149" name="Constant_5751" type="Const" version="opset1">
			<data element_type="f32" shape="256, 1, 1, 1" offset="110169" size="1024" />
			<output>
				<port id="0" precision="FP32">
					<dim>256</dim>
					<dim>1</dim>
					<dim>1</dim>
					<dim>1</dim>
				</port>
			</output>
		</layer>
		<layer id="150" name="Multiply_4978" type="Multiply" version="opset1">
			<data auto_broadcast="numpy" />
			<input>
				<port id="0" precision="FP32">
					<dim>256</dim>
					<dim>128</dim>
					<dim>1</dim>
					<dim>1</dim>
				</port>
				<port id="1" precision="FP32">
					<dim>256</dim>
					<dim>1</dim>
					<dim>1</dim>
					<dim>1</dim>
				</port>
			</input>
			<output>
				<port id="2" precision="FP32">
					<dim>256</dim>
					<dim>128</dim>
					<dim>1</dim>
					<dim>1</dim>
				</port>
			</output>
		</layer>
		<layer id="151" name="Multiply_4868" type="Convolution" version="opset1">
			<data strides="1, 1" dilations="1, 1" pads_begin="1, 1" pads_end="1, 1" auto_pad="explicit" />
			<input>
				<port id="0" precision="FP32">
					<dim>1</dim>
					<dim>128</dim>
					<dim>34</dim>
					<dim>27</dim>
				</port>
				<port id="1" precision="FP32">
					<dim>256</dim>
					<dim>128</dim>
					<dim>1</dim>
					<dim>1</dim>
				</port>
			</input>
			<output>
				<port id="2" precision="FP32">
					<dim>1</dim>
					<dim>256</dim>
					<dim>36</dim>
					<dim>29</dim>
				</port>
			</output>
		</layer>
		<layer id="152" name="Constant_4873" type="Const" version="opset1">
			<data element_type="f32" shape="1, 256, 1, 1" offset="111193" size="1024" />
			<output>
				<port id="0" precision="FP32">
					<dim>1</dim>
					<dim>256</dim>
					<dim>1</dim>
					<dim>1</dim>
				</port>
			</output>
		</layer>
		<layer id="153" name="358" type="Add" version="opset1">
			<data auto_broadcast="numpy" />
			<input>
				<port id="0" precision="FP32">
					<dim>1</dim>
					<dim>256</dim>
					<dim>36</dim>
					<dim>29</dim>
				</port>
				<port id="1" precision="FP32">
					<dim>1</dim>
					<dim>256</dim>
					<dim>1</dim>
					<dim>1</dim>
				</port>
			</input>
			<output>
				<port id="2" precision="FP32" names="358">
					<dim>1</dim>
					<dim>256</dim>
					<dim>36</dim>
					<dim>29</dim>
				</port>
			</output>
		</layer>
		<layer id="154" name="Constant_5248" type="Const" version="opset1">
			<data element_type="f32" shape="1, 1, 1, 1" offset="2632" size="4" />
			<output>
				<port id="0" precision="FP32">
					<dim>1</dim>
					<dim>1</dim>
					<dim>1</dim>
					<dim>1</dim>
				</port>
			</output>
		</layer>
		<layer id="155" name="Constant_5249" type="Const" version="opset1">
			<data element_type="f32" shape="1, 1, 1, 1" offset="112217" size="4" />
			<output>
				<port id="0" precision="FP32">
					<dim>1</dim>
					<dim>1</dim>
					<dim>1</dim>
					<dim>1</dim>
				</port>
			</output>
		</layer>
		<layer id="156" name="Constant_5250" type="Const" version="opset1">
			<data element_type="f32" shape="1, 1, 1, 1" offset="2632" size="4" />
			<output>
				<port id="0" precision="FP32">
					<dim>1</dim>
					<dim>1</dim>
					<dim>1</dim>
					<dim>1</dim>
				</port>
			</output>
		</layer>
		<layer id="157" name="Constant_5251" type="Const" version="opset1">
			<data element_type="f32" shape="1, 1, 1, 1" offset="112217" size="4" />
			<output>
				<port id="0" precision="FP32">
					<dim>1</dim>
					<dim>1</dim>
					<dim>1</dim>
					<dim>1</dim>
				</port>
			</output>
		</layer>
		<layer id="158" name="362" type="FakeQuantize" version="opset1">
			<data levels="256" auto_broadcast="numpy" />
			<input>
				<port id="0" precision="FP32">
					<dim>1</dim>
					<dim>256</dim>
					<dim>36</dim>
					<dim>29</dim>
				</port>
				<port id="1" precision="FP32">
					<dim>1</dim>
					<dim>1</dim>
					<dim>1</dim>
					<dim>1</dim>
				</port>
				<port id="2" precision="FP32">
					<dim>1</dim>
					<dim>1</dim>
					<dim>1</dim>
					<dim>1</dim>
				</port>
				<port id="3" precision="FP32">
					<dim>1</dim>
					<dim>1</dim>
					<dim>1</dim>
					<dim>1</dim>
				</port>
				<port id="4" precision="FP32">
					<dim>1</dim>
					<dim>1</dim>
					<dim>1</dim>
					<dim>1</dim>
				</port>
			</input>
			<output>
				<port id="5" precision="FP32" names="362">
					<dim>1</dim>
					<dim>256</dim>
					<dim>36</dim>
					<dim>29</dim>
				</port>
			</output>
		</layer>
		<layer id="159" name="Constant_5753" type="Const" version="opset1">
			<data element_type="i8" shape="256, 1, 3, 3" offset="112221" size="2304" />
			<output>
				<port id="0" precision="I8">
					<dim>256</dim>
					<dim>1</dim>
					<dim>3</dim>
					<dim>3</dim>
				</port>
			</output>
		</layer>
		<layer id="160" name="Convert_5754" type="Convert" version="opset1">
			<data destination_type="f32" />
			<input>
				<port id="0" precision="I8">
					<dim>256</dim>
					<dim>1</dim>
					<dim>3</dim>
					<dim>3</dim>
				</port>
			</input>
			<output>
				<port id="1" precision="FP32">
					<dim>256</dim>
					<dim>1</dim>
					<dim>3</dim>
					<dim>3</dim>
				</port>
			</output>
		</layer>
		<layer id="161" name="Constant_5755" type="Const" version="opset1">
			<data element_type="f32" shape="1, 1, 1, 1" offset="114525" size="4" />
			<output>
				<port id="0" precision="FP32">
					<dim>1</dim>
					<dim>1</dim>
					<dim>1</dim>
					<dim>1</dim>
				</port>
			</output>
		</layer>
		<layer id="162" name="365" type="Multiply" version="opset1">
			<data auto_broadcast="numpy" />
			<input>
				<port id="0" precision="FP32">
					<dim>256</dim>
					<dim>1</dim>
					<dim>3</dim>
					<dim>3</dim>
				</port>
				<port id="1" precision="FP32">
					<dim>1</dim>
					<dim>1</dim>
					<dim>1</dim>
					<dim>1</dim>
				</port>
			</input>
			<output>
				<port id="2" precision="FP32" names="365">
					<dim>256</dim>
					<dim>1</dim>
					<dim>3</dim>
					<dim>3</dim>
				</port>
			</output>
		</layer>
		<layer id="163" name="Reshape_4981" type="Const" version="opset1">
			<data element_type="f32" shape="256, 1, 1, 1" offset="114529" size="1024" />
			<output>
				<port id="0" precision="FP32">
					<dim>256</dim>
					<dim>1</dim>
					<dim>1</dim>
					<dim>1</dim>
				</port>
			</output>
		</layer>
		<layer id="164" name="Multiply_4982" type="Multiply" version="opset1">
			<data auto_broadcast="numpy" />
			<input>
				<port id="0" precision="FP32">
					<dim>256</dim>
					<dim>1</dim>
					<dim>3</dim>
					<dim>3</dim>
				</port>
				<port id="1" precision="FP32">
					<dim>256</dim>
					<dim>1</dim>
					<dim>1</dim>
					<dim>1</dim>
				</port>
			</input>
			<output>
				<port id="2" precision="FP32">
					<dim>256</dim>
					<dim>1</dim>
					<dim>3</dim>
					<dim>3</dim>
				</port>
			</output>
		</layer>
		<layer id="165" name="Constant_522" type="Const" version="opset1">
			<data element_type="i64" shape="1" offset="115553" size="8" />
			<output>
				<port id="0" precision="I64">
					<dim>1</dim>
				</port>
			</output>
		</layer>
		<layer id="166" name="ShapeOf_523" type="ShapeOf" version="opset3">
			<data output_type="i64" />
			<input>
				<port id="0" precision="FP32">
					<dim>256</dim>
					<dim>1</dim>
					<dim>3</dim>
					<dim>3</dim>
				</port>
			</input>
			<output>
				<port id="1" precision="I64">
					<dim>4</dim>
				</port>
			</output>
		</layer>
		<layer id="167" name="Constant_520" type="Const" version="opset1">
			<data element_type="i64" shape="" offset="46109" size="8" />
			<output>
				<port id="0" precision="I64" />
			</output>
		</layer>
		<layer id="168" name="Constant_521" type="Const" version="opset1">
			<data element_type="i64" shape="2" offset="46117" size="16" />
			<output>
				<port id="0" precision="I64">
					<dim>2</dim>
				</port>
			</output>
		</layer>
		<layer id="169" name="VariadicSplit_524" type="VariadicSplit" version="opset1">
			<input>
				<port id="0" precision="I64">
					<dim>4</dim>
				</port>
				<port id="1" precision="I64" />
				<port id="2" precision="I64">
					<dim>2</dim>
				</port>
			</input>
			<output>
				<port id="3" precision="I64">
					<dim>1</dim>
				</port>
				<port id="4" precision="I64">
					<dim>3</dim>
				</port>
			</output>
		</layer>
		<layer id="170" name="Divide_525" type="Divide" version="opset1">
			<data auto_broadcast="numpy" m_pythondiv="true" />
			<input>
				<port id="0" precision="I64">
					<dim>1</dim>
				</port>
				<port id="1" precision="I64">
					<dim>1</dim>
				</port>
			</input>
			<output>
				<port id="2" precision="I64">
					<dim>1</dim>
				</port>
			</output>
		</layer>
		<layer id="171" name="Concat_526" type="Concat" version="opset1">
			<data axis="0" />
			<input>
				<port id="0" precision="I64">
					<dim>1</dim>
				</port>
				<port id="1" precision="I64">
					<dim>1</dim>
				</port>
				<port id="2" precision="I64">
					<dim>3</dim>
				</port>
			</input>
			<output>
				<port id="3" precision="I64">
					<dim>5</dim>
				</port>
			</output>
		</layer>
		<layer id="172" name="Reshape_527" type="Reshape" version="opset1">
			<data special_zero="false" />
			<input>
				<port id="0" precision="FP32">
					<dim>256</dim>
					<dim>1</dim>
					<dim>3</dim>
					<dim>3</dim>
				</port>
				<port id="1" precision="I64">
					<dim>5</dim>
				</port>
			</input>
			<output>
				<port id="2" precision="FP32">
					<dim>256</dim>
					<dim>1</dim>
					<dim>1</dim>
					<dim>3</dim>
					<dim>3</dim>
				</port>
			</output>
		</layer>
		<layer id="173" name="Multiply_4875" type="GroupConvolution" version="opset1">
			<data strides="1, 1" pads_begin="1, 1" pads_end="1, 1" dilations="1, 1" auto_pad="explicit" />
			<input>
				<port id="0" precision="FP32">
					<dim>1</dim>
					<dim>256</dim>
					<dim>36</dim>
					<dim>29</dim>
				</port>
				<port id="1" precision="FP32">
					<dim>256</dim>
					<dim>1</dim>
					<dim>1</dim>
					<dim>3</dim>
					<dim>3</dim>
				</port>
			</input>
			<output>
				<port id="2" precision="FP32" names="366">
					<dim>1</dim>
					<dim>256</dim>
					<dim>36</dim>
					<dim>29</dim>
				</port>
			</output>
		</layer>
		<layer id="174" name="Constant_4880" type="Const" version="opset1">
			<data element_type="f32" shape="1, 256, 1, 1" offset="115561" size="1024" />
			<output>
				<port id="0" precision="FP32">
					<dim>1</dim>
					<dim>256</dim>
					<dim>1</dim>
					<dim>1</dim>
				</port>
			</output>
		</layer>
		<layer id="175" name="367" type="Add" version="opset1">
			<data auto_broadcast="numpy" />
			<input>
				<port id="0" precision="FP32">
					<dim>1</dim>
					<dim>256</dim>
					<dim>36</dim>
					<dim>29</dim>
				</port>
				<port id="1" precision="FP32">
					<dim>1</dim>
					<dim>256</dim>
					<dim>1</dim>
					<dim>1</dim>
				</port>
			</input>
			<output>
				<port id="2" precision="FP32" names="367">
					<dim>1</dim>
					<dim>256</dim>
					<dim>36</dim>
					<dim>29</dim>
				</port>
			</output>
		</layer>
		<layer id="176" name="Constant_5256" type="Const" version="opset1">
			<data element_type="f32" shape="1, 1, 1, 1" offset="2632" size="4" />
			<output>
				<port id="0" precision="FP32">
					<dim>1</dim>
					<dim>1</dim>
					<dim>1</dim>
					<dim>1</dim>
				</port>
			</output>
		</layer>
		<layer id="177" name="Constant_5257" type="Const" version="opset1">
			<data element_type="f32" shape="1, 1, 1, 1" offset="116585" size="4" />
			<output>
				<port id="0" precision="FP32">
					<dim>1</dim>
					<dim>1</dim>
					<dim>1</dim>
					<dim>1</dim>
				</port>
			</output>
		</layer>
		<layer id="178" name="Constant_5258" type="Const" version="opset1">
			<data element_type="f32" shape="1, 1, 1, 1" offset="2632" size="4" />
			<output>
				<port id="0" precision="FP32">
					<dim>1</dim>
					<dim>1</dim>
					<dim>1</dim>
					<dim>1</dim>
				</port>
			</output>
		</layer>
		<layer id="179" name="Constant_5259" type="Const" version="opset1">
			<data element_type="f32" shape="1, 1, 1, 1" offset="116585" size="4" />
			<output>
				<port id="0" precision="FP32">
					<dim>1</dim>
					<dim>1</dim>
					<dim>1</dim>
					<dim>1</dim>
				</port>
			</output>
		</layer>
		<layer id="180" name="371" type="FakeQuantize" version="opset1">
			<data levels="256" auto_broadcast="numpy" />
			<input>
				<port id="0" precision="FP32">
					<dim>1</dim>
					<dim>256</dim>
					<dim>36</dim>
					<dim>29</dim>
				</port>
				<port id="1" precision="FP32">
					<dim>1</dim>
					<dim>1</dim>
					<dim>1</dim>
					<dim>1</dim>
				</port>
				<port id="2" precision="FP32">
					<dim>1</dim>
					<dim>1</dim>
					<dim>1</dim>
					<dim>1</dim>
				</port>
				<port id="3" precision="FP32">
					<dim>1</dim>
					<dim>1</dim>
					<dim>1</dim>
					<dim>1</dim>
				</port>
				<port id="4" precision="FP32">
					<dim>1</dim>
					<dim>1</dim>
					<dim>1</dim>
					<dim>1</dim>
				</port>
			</input>
			<output>
				<port id="5" precision="FP32" names="371">
					<dim>1</dim>
					<dim>256</dim>
					<dim>36</dim>
					<dim>29</dim>
				</port>
			</output>
		</layer>
		<layer id="181" name="Constant_5757" type="Const" version="opset1">
			<data element_type="i8" shape="256, 256, 1, 1" offset="116589" size="65536" />
			<output>
				<port id="0" precision="I8">
					<dim>256</dim>
					<dim>256</dim>
					<dim>1</dim>
					<dim>1</dim>
				</port>
			</output>
		</layer>
		<layer id="182" name="Convert_5758" type="Convert" version="opset1">
			<data destination_type="f32" />
			<input>
				<port id="0" precision="I8">
					<dim>256</dim>
					<dim>256</dim>
					<dim>1</dim>
					<dim>1</dim>
				</port>
			</input>
			<output>
				<port id="1" precision="FP32">
					<dim>256</dim>
					<dim>256</dim>
					<dim>1</dim>
					<dim>1</dim>
				</port>
			</output>
		</layer>
		<layer id="183" name="Constant_5759" type="Const" version="opset1">
			<data element_type="f32" shape="256, 1, 1, 1" offset="182125" size="1024" />
			<output>
				<port id="0" precision="FP32">
					<dim>256</dim>
					<dim>1</dim>
					<dim>1</dim>
					<dim>1</dim>
				</port>
			</output>
		</layer>
		<layer id="184" name="Multiply_4985" type="Multiply" version="opset1">
			<data auto_broadcast="numpy" />
			<input>
				<port id="0" precision="FP32">
					<dim>256</dim>
					<dim>256</dim>
					<dim>1</dim>
					<dim>1</dim>
				</port>
				<port id="1" precision="FP32">
					<dim>256</dim>
					<dim>1</dim>
					<dim>1</dim>
					<dim>1</dim>
				</port>
			</input>
			<output>
				<port id="2" precision="FP32">
					<dim>256</dim>
					<dim>256</dim>
					<dim>1</dim>
					<dim>1</dim>
				</port>
			</output>
		</layer>
		<layer id="185" name="Multiply_4882" type="Convolution" version="opset1">
			<data strides="1, 1" dilations="1, 1" pads_begin="1, 1" pads_end="1, 1" auto_pad="explicit" />
			<input>
				<port id="0" precision="FP32">
					<dim>1</dim>
					<dim>256</dim>
					<dim>36</dim>
					<dim>29</dim>
				</port>
				<port id="1" precision="FP32">
					<dim>256</dim>
					<dim>256</dim>
					<dim>1</dim>
					<dim>1</dim>
				</port>
			</input>
			<output>
				<port id="2" precision="FP32">
					<dim>1</dim>
					<dim>256</dim>
					<dim>38</dim>
					<dim>31</dim>
				</port>
			</output>
		</layer>
		<layer id="186" name="Constant_4887" type="Const" version="opset1">
			<data element_type="f32" shape="1, 256, 1, 1" offset="183149" size="1024" />
			<output>
				<port id="0" precision="FP32">
					<dim>1</dim>
					<dim>256</dim>
					<dim>1</dim>
					<dim>1</dim>
				</port>
			</output>
		</layer>
		<layer id="187" name="376" type="Add" version="opset1">
			<data auto_broadcast="numpy" />
			<input>
				<port id="0" precision="FP32">
					<dim>1</dim>
					<dim>256</dim>
					<dim>38</dim>
					<dim>31</dim>
				</port>
				<port id="1" precision="FP32">
					<dim>1</dim>
					<dim>256</dim>
					<dim>1</dim>
					<dim>1</dim>
				</port>
			</input>
			<output>
				<port id="2" precision="FP32" names="376">
					<dim>1</dim>
					<dim>256</dim>
					<dim>38</dim>
					<dim>31</dim>
				</port>
			</output>
		</layer>
		<layer id="188" name="Constant_5262" type="Const" version="opset1">
			<data element_type="f32" shape="1, 1, 1, 1" offset="2632" size="4" />
			<output>
				<port id="0" precision="FP32">
					<dim>1</dim>
					<dim>1</dim>
					<dim>1</dim>
					<dim>1</dim>
				</port>
			</output>
		</layer>
		<layer id="189" name="Constant_5263" type="Const" version="opset1">
			<data element_type="f32" shape="1, 1, 1, 1" offset="184173" size="4" />
			<output>
				<port id="0" precision="FP32">
					<dim>1</dim>
					<dim>1</dim>
					<dim>1</dim>
					<dim>1</dim>
				</port>
			</output>
		</layer>
		<layer id="190" name="Constant_5264" type="Const" version="opset1">
			<data element_type="f32" shape="1, 1, 1, 1" offset="2632" size="4" />
			<output>
				<port id="0" precision="FP32">
					<dim>1</dim>
					<dim>1</dim>
					<dim>1</dim>
					<dim>1</dim>
				</port>
			</output>
		</layer>
		<layer id="191" name="Constant_5265" type="Const" version="opset1">
			<data element_type="f32" shape="1, 1, 1, 1" offset="184173" size="4" />
			<output>
				<port id="0" precision="FP32">
					<dim>1</dim>
					<dim>1</dim>
					<dim>1</dim>
					<dim>1</dim>
				</port>
			</output>
		</layer>
		<layer id="192" name="380" type="FakeQuantize" version="opset1">
			<data levels="256" auto_broadcast="numpy" />
			<input>
				<port id="0" precision="FP32">
					<dim>1</dim>
					<dim>256</dim>
					<dim>38</dim>
					<dim>31</dim>
				</port>
				<port id="1" precision="FP32">
					<dim>1</dim>
					<dim>1</dim>
					<dim>1</dim>
					<dim>1</dim>
				</port>
				<port id="2" precision="FP32">
					<dim>1</dim>
					<dim>1</dim>
					<dim>1</dim>
					<dim>1</dim>
				</port>
				<port id="3" precision="FP32">
					<dim>1</dim>
					<dim>1</dim>
					<dim>1</dim>
					<dim>1</dim>
				</port>
				<port id="4" precision="FP32">
					<dim>1</dim>
					<dim>1</dim>
					<dim>1</dim>
					<dim>1</dim>
				</port>
			</input>
			<output>
				<port id="5" precision="FP32" names="380">
					<dim>1</dim>
					<dim>256</dim>
					<dim>38</dim>
					<dim>31</dim>
				</port>
			</output>
		</layer>
		<layer id="193" name="381" type="MaxPool" version="opset8">
			<data strides="2, 2" dilations="1, 1" pads_begin="0, 0" pads_end="0, 0" kernel="2, 2" rounding_type="floor" auto_pad="explicit" index_element_type="i64" axis="0" />
			<input>
				<port id="0" precision="FP32">
					<dim>1</dim>
					<dim>256</dim>
					<dim>38</dim>
					<dim>31</dim>
				</port>
			</input>
			<output>
				<port id="1" precision="FP32" names="381">
					<dim>1</dim>
					<dim>256</dim>
					<dim>19</dim>
					<dim>15</dim>
				</port>
				<port id="2" precision="I64">
					<dim>1</dim>
					<dim>256</dim>
					<dim>19</dim>
					<dim>15</dim>
				</port>
			</output>
		</layer>
		<layer id="194" name="Constant_5761" type="Const" version="opset1">
			<data element_type="i8" shape="256, 1, 3, 3" offset="184177" size="2304" />
			<output>
				<port id="0" precision="I8">
					<dim>256</dim>
					<dim>1</dim>
					<dim>3</dim>
					<dim>3</dim>
				</port>
			</output>
		</layer>
		<layer id="195" name="Convert_5762" type="Convert" version="opset1">
			<data destination_type="f32" />
			<input>
				<port id="0" precision="I8">
					<dim>256</dim>
					<dim>1</dim>
					<dim>3</dim>
					<dim>3</dim>
				</port>
			</input>
			<output>
				<port id="1" precision="FP32">
					<dim>256</dim>
					<dim>1</dim>
					<dim>3</dim>
					<dim>3</dim>
				</port>
			</output>
		</layer>
		<layer id="196" name="Constant_5763" type="Const" version="opset1">
			<data element_type="f32" shape="1, 1, 1, 1" offset="186481" size="4" />
			<output>
				<port id="0" precision="FP32">
					<dim>1</dim>
					<dim>1</dim>
					<dim>1</dim>
					<dim>1</dim>
				</port>
			</output>
		</layer>
		<layer id="197" name="384" type="Multiply" version="opset1">
			<data auto_broadcast="numpy" />
			<input>
				<port id="0" precision="FP32">
					<dim>256</dim>
					<dim>1</dim>
					<dim>3</dim>
					<dim>3</dim>
				</port>
				<port id="1" precision="FP32">
					<dim>1</dim>
					<dim>1</dim>
					<dim>1</dim>
					<dim>1</dim>
				</port>
			</input>
			<output>
				<port id="2" precision="FP32" names="384">
					<dim>256</dim>
					<dim>1</dim>
					<dim>3</dim>
					<dim>3</dim>
				</port>
			</output>
		</layer>
		<layer id="198" name="Reshape_4988" type="Const" version="opset1">
			<data element_type="f32" shape="256, 1, 1, 1" offset="186485" size="1024" />
			<output>
				<port id="0" precision="FP32">
					<dim>256</dim>
					<dim>1</dim>
					<dim>1</dim>
					<dim>1</dim>
				</port>
			</output>
		</layer>
		<layer id="199" name="Multiply_4989" type="Multiply" version="opset1">
			<data auto_broadcast="numpy" />
			<input>
				<port id="0" precision="FP32">
					<dim>256</dim>
					<dim>1</dim>
					<dim>3</dim>
					<dim>3</dim>
				</port>
				<port id="1" precision="FP32">
					<dim>256</dim>
					<dim>1</dim>
					<dim>1</dim>
					<dim>1</dim>
				</port>
			</input>
			<output>
				<port id="2" precision="FP32">
					<dim>256</dim>
					<dim>1</dim>
					<dim>3</dim>
					<dim>3</dim>
				</port>
			</output>
		</layer>
		<layer id="200" name="Constant_590" type="Const" version="opset1">
			<data element_type="i64" shape="1" offset="115553" size="8" />
			<output>
				<port id="0" precision="I64">
					<dim>1</dim>
				</port>
			</output>
		</layer>
		<layer id="201" name="ShapeOf_591" type="ShapeOf" version="opset3">
			<data output_type="i64" />
			<input>
				<port id="0" precision="FP32">
					<dim>256</dim>
					<dim>1</dim>
					<dim>3</dim>
					<dim>3</dim>
				</port>
			</input>
			<output>
				<port id="1" precision="I64">
					<dim>4</dim>
				</port>
			</output>
		</layer>
		<layer id="202" name="Constant_588" type="Const" version="opset1">
			<data element_type="i64" shape="" offset="46109" size="8" />
			<output>
				<port id="0" precision="I64" />
			</output>
		</layer>
		<layer id="203" name="Constant_589" type="Const" version="opset1">
			<data element_type="i64" shape="2" offset="46117" size="16" />
			<output>
				<port id="0" precision="I64">
					<dim>2</dim>
				</port>
			</output>
		</layer>
		<layer id="204" name="VariadicSplit_592" type="VariadicSplit" version="opset1">
			<input>
				<port id="0" precision="I64">
					<dim>4</dim>
				</port>
				<port id="1" precision="I64" />
				<port id="2" precision="I64">
					<dim>2</dim>
				</port>
			</input>
			<output>
				<port id="3" precision="I64">
					<dim>1</dim>
				</port>
				<port id="4" precision="I64">
					<dim>3</dim>
				</port>
			</output>
		</layer>
		<layer id="205" name="Divide_593" type="Divide" version="opset1">
			<data auto_broadcast="numpy" m_pythondiv="true" />
			<input>
				<port id="0" precision="I64">
					<dim>1</dim>
				</port>
				<port id="1" precision="I64">
					<dim>1</dim>
				</port>
			</input>
			<output>
				<port id="2" precision="I64">
					<dim>1</dim>
				</port>
			</output>
		</layer>
		<layer id="206" name="Concat_594" type="Concat" version="opset1">
			<data axis="0" />
			<input>
				<port id="0" precision="I64">
					<dim>1</dim>
				</port>
				<port id="1" precision="I64">
					<dim>1</dim>
				</port>
				<port id="2" precision="I64">
					<dim>3</dim>
				</port>
			</input>
			<output>
				<port id="3" precision="I64">
					<dim>5</dim>
				</port>
			</output>
		</layer>
		<layer id="207" name="Reshape_595" type="Reshape" version="opset1">
			<data special_zero="false" />
			<input>
				<port id="0" precision="FP32">
					<dim>256</dim>
					<dim>1</dim>
					<dim>3</dim>
					<dim>3</dim>
				</port>
				<port id="1" precision="I64">
					<dim>5</dim>
				</port>
			</input>
			<output>
				<port id="2" precision="FP32">
					<dim>256</dim>
					<dim>1</dim>
					<dim>1</dim>
					<dim>3</dim>
					<dim>3</dim>
				</port>
			</output>
		</layer>
		<layer id="208" name="Multiply_4889" type="GroupConvolution" version="opset1">
			<data strides="1, 1" pads_begin="1, 1" pads_end="1, 1" dilations="1, 1" auto_pad="explicit" />
			<input>
				<port id="0" precision="FP32">
					<dim>1</dim>
					<dim>256</dim>
					<dim>19</dim>
					<dim>15</dim>
				</port>
				<port id="1" precision="FP32">
					<dim>256</dim>
					<dim>1</dim>
					<dim>1</dim>
					<dim>3</dim>
					<dim>3</dim>
				</port>
			</input>
			<output>
				<port id="2" precision="FP32" names="385">
					<dim>1</dim>
					<dim>256</dim>
					<dim>19</dim>
					<dim>15</dim>
				</port>
			</output>
		</layer>
		<layer id="209" name="Constant_4894" type="Const" version="opset1">
			<data element_type="f32" shape="1, 256, 1, 1" offset="187509" size="1024" />
			<output>
				<port id="0" precision="FP32">
					<dim>1</dim>
					<dim>256</dim>
					<dim>1</dim>
					<dim>1</dim>
				</port>
			</output>
		</layer>
		<layer id="210" name="386" type="Add" version="opset1">
			<data auto_broadcast="numpy" />
			<input>
				<port id="0" precision="FP32">
					<dim>1</dim>
					<dim>256</dim>
					<dim>19</dim>
					<dim>15</dim>
				</port>
				<port id="1" precision="FP32">
					<dim>1</dim>
					<dim>256</dim>
					<dim>1</dim>
					<dim>1</dim>
				</port>
			</input>
			<output>
				<port id="2" precision="FP32" names="386">
					<dim>1</dim>
					<dim>256</dim>
					<dim>19</dim>
					<dim>15</dim>
				</port>
			</output>
		</layer>
		<layer id="211" name="Constant_5270" type="Const" version="opset1">
			<data element_type="f32" shape="1, 1, 1, 1" offset="2632" size="4" />
			<output>
				<port id="0" precision="FP32">
					<dim>1</dim>
					<dim>1</dim>
					<dim>1</dim>
					<dim>1</dim>
				</port>
			</output>
		</layer>
		<layer id="212" name="Constant_5271" type="Const" version="opset1">
			<data element_type="f32" shape="1, 1, 1, 1" offset="188533" size="4" />
			<output>
				<port id="0" precision="FP32">
					<dim>1</dim>
					<dim>1</dim>
					<dim>1</dim>
					<dim>1</dim>
				</port>
			</output>
		</layer>
		<layer id="213" name="Constant_5272" type="Const" version="opset1">
			<data element_type="f32" shape="1, 1, 1, 1" offset="2632" size="4" />
			<output>
				<port id="0" precision="FP32">
					<dim>1</dim>
					<dim>1</dim>
					<dim>1</dim>
					<dim>1</dim>
				</port>
			</output>
		</layer>
		<layer id="214" name="Constant_5273" type="Const" version="opset1">
			<data element_type="f32" shape="1, 1, 1, 1" offset="188533" size="4" />
			<output>
				<port id="0" precision="FP32">
					<dim>1</dim>
					<dim>1</dim>
					<dim>1</dim>
					<dim>1</dim>
				</port>
			</output>
		</layer>
		<layer id="215" name="390" type="FakeQuantize" version="opset1">
			<data levels="256" auto_broadcast="numpy" />
			<input>
				<port id="0" precision="FP32">
					<dim>1</dim>
					<dim>256</dim>
					<dim>19</dim>
					<dim>15</dim>
				</port>
				<port id="1" precision="FP32">
					<dim>1</dim>
					<dim>1</dim>
					<dim>1</dim>
					<dim>1</dim>
				</port>
				<port id="2" precision="FP32">
					<dim>1</dim>
					<dim>1</dim>
					<dim>1</dim>
					<dim>1</dim>
				</port>
				<port id="3" precision="FP32">
					<dim>1</dim>
					<dim>1</dim>
					<dim>1</dim>
					<dim>1</dim>
				</port>
				<port id="4" precision="FP32">
					<dim>1</dim>
					<dim>1</dim>
					<dim>1</dim>
					<dim>1</dim>
				</port>
			</input>
			<output>
				<port id="5" precision="FP32" names="390">
					<dim>1</dim>
					<dim>256</dim>
					<dim>19</dim>
					<dim>15</dim>
				</port>
			</output>
		</layer>
		<layer id="216" name="Constant_5765" type="Const" version="opset1">
			<data element_type="i8" shape="512, 256, 1, 1" offset="188537" size="131072" />
			<output>
				<port id="0" precision="I8">
					<dim>512</dim>
					<dim>256</dim>
					<dim>1</dim>
					<dim>1</dim>
				</port>
			</output>
		</layer>
		<layer id="217" name="Convert_5766" type="Convert" version="opset1">
			<data destination_type="f32" />
			<input>
				<port id="0" precision="I8">
					<dim>512</dim>
					<dim>256</dim>
					<dim>1</dim>
					<dim>1</dim>
				</port>
			</input>
			<output>
				<port id="1" precision="FP32">
					<dim>512</dim>
					<dim>256</dim>
					<dim>1</dim>
					<dim>1</dim>
				</port>
			</output>
		</layer>
		<layer id="218" name="Constant_5767" type="Const" version="opset1">
			<data element_type="f32" shape="512, 1, 1, 1" offset="319609" size="2048" />
			<output>
				<port id="0" precision="FP32">
					<dim>512</dim>
					<dim>1</dim>
					<dim>1</dim>
					<dim>1</dim>
				</port>
			</output>
		</layer>
		<layer id="219" name="Multiply_4992" type="Multiply" version="opset1">
			<data auto_broadcast="numpy" />
			<input>
				<port id="0" precision="FP32">
					<dim>512</dim>
					<dim>256</dim>
					<dim>1</dim>
					<dim>1</dim>
				</port>
				<port id="1" precision="FP32">
					<dim>512</dim>
					<dim>1</dim>
					<dim>1</dim>
					<dim>1</dim>
				</port>
			</input>
			<output>
				<port id="2" precision="FP32">
					<dim>512</dim>
					<dim>256</dim>
					<dim>1</dim>
					<dim>1</dim>
				</port>
			</output>
		</layer>
		<layer id="220" name="Multiply_4896" type="Convolution" version="opset1">
			<data strides="1, 1" dilations="1, 1" pads_begin="1, 1" pads_end="1, 1" auto_pad="explicit" />
			<input>
				<port id="0" precision="FP32">
					<dim>1</dim>
					<dim>256</dim>
					<dim>19</dim>
					<dim>15</dim>
				</port>
				<port id="1" precision="FP32">
					<dim>512</dim>
					<dim>256</dim>
					<dim>1</dim>
					<dim>1</dim>
				</port>
			</input>
			<output>
				<port id="2" precision="FP32">
					<dim>1</dim>
					<dim>512</dim>
					<dim>21</dim>
					<dim>17</dim>
				</port>
			</output>
		</layer>
		<layer id="221" name="Constant_4901" type="Const" version="opset1">
			<data element_type="f32" shape="1, 512, 1, 1" offset="321657" size="2048" />
			<output>
				<port id="0" precision="FP32">
					<dim>1</dim>
					<dim>512</dim>
					<dim>1</dim>
					<dim>1</dim>
				</port>
			</output>
		</layer>
		<layer id="222" name="395" type="Add" version="opset1">
			<data auto_broadcast="numpy" />
			<input>
				<port id="0" precision="FP32">
					<dim>1</dim>
					<dim>512</dim>
					<dim>21</dim>
					<dim>17</dim>
				</port>
				<port id="1" precision="FP32">
					<dim>1</dim>
					<dim>512</dim>
					<dim>1</dim>
					<dim>1</dim>
				</port>
			</input>
			<output>
				<port id="2" precision="FP32" names="395">
					<dim>1</dim>
					<dim>512</dim>
					<dim>21</dim>
					<dim>17</dim>
				</port>
			</output>
		</layer>
		<layer id="223" name="Constant_5276" type="Const" version="opset1">
			<data element_type="f32" shape="1, 1, 1, 1" offset="2632" size="4" />
			<output>
				<port id="0" precision="FP32">
					<dim>1</dim>
					<dim>1</dim>
					<dim>1</dim>
					<dim>1</dim>
				</port>
			</output>
		</layer>
		<layer id="224" name="Constant_5277" type="Const" version="opset1">
			<data element_type="f32" shape="1, 1, 1, 1" offset="323705" size="4" />
			<output>
				<port id="0" precision="FP32">
					<dim>1</dim>
					<dim>1</dim>
					<dim>1</dim>
					<dim>1</dim>
				</port>
			</output>
		</layer>
		<layer id="225" name="Constant_5278" type="Const" version="opset1">
			<data element_type="f32" shape="1, 1, 1, 1" offset="2632" size="4" />
			<output>
				<port id="0" precision="FP32">
					<dim>1</dim>
					<dim>1</dim>
					<dim>1</dim>
					<dim>1</dim>
				</port>
			</output>
		</layer>
		<layer id="226" name="Constant_5279" type="Const" version="opset1">
			<data element_type="f32" shape="1, 1, 1, 1" offset="323705" size="4" />
			<output>
				<port id="0" precision="FP32">
					<dim>1</dim>
					<dim>1</dim>
					<dim>1</dim>
					<dim>1</dim>
				</port>
			</output>
		</layer>
		<layer id="227" name="399" type="FakeQuantize" version="opset1">
			<data levels="256" auto_broadcast="numpy" />
			<input>
				<port id="0" precision="FP32">
					<dim>1</dim>
					<dim>512</dim>
					<dim>21</dim>
					<dim>17</dim>
				</port>
				<port id="1" precision="FP32">
					<dim>1</dim>
					<dim>1</dim>
					<dim>1</dim>
					<dim>1</dim>
				</port>
				<port id="2" precision="FP32">
					<dim>1</dim>
					<dim>1</dim>
					<dim>1</dim>
					<dim>1</dim>
				</port>
				<port id="3" precision="FP32">
					<dim>1</dim>
					<dim>1</dim>
					<dim>1</dim>
					<dim>1</dim>
				</port>
				<port id="4" precision="FP32">
					<dim>1</dim>
					<dim>1</dim>
					<dim>1</dim>
					<dim>1</dim>
				</port>
			</input>
			<output>
				<port id="5" precision="FP32" names="399">
					<dim>1</dim>
					<dim>512</dim>
					<dim>21</dim>
					<dim>17</dim>
				</port>
			</output>
		</layer>
		<layer id="228" name="Constant_5769" type="Const" version="opset1">
			<data element_type="i8" shape="512, 1, 3, 3" offset="323709" size="4608" />
			<output>
				<port id="0" precision="I8">
					<dim>512</dim>
					<dim>1</dim>
					<dim>3</dim>
					<dim>3</dim>
				</port>
			</output>
		</layer>
		<layer id="229" name="Convert_5770" type="Convert" version="opset1">
			<data destination_type="f32" />
			<input>
				<port id="0" precision="I8">
					<dim>512</dim>
					<dim>1</dim>
					<dim>3</dim>
					<dim>3</dim>
				</port>
			</input>
			<output>
				<port id="1" precision="FP32">
					<dim>512</dim>
					<dim>1</dim>
					<dim>3</dim>
					<dim>3</dim>
				</port>
			</output>
		</layer>
		<layer id="230" name="Constant_5771" type="Const" version="opset1">
			<data element_type="f32" shape="1, 1, 1, 1" offset="328317" size="4" />
			<output>
				<port id="0" precision="FP32">
					<dim>1</dim>
					<dim>1</dim>
					<dim>1</dim>
					<dim>1</dim>
				</port>
			</output>
		</layer>
		<layer id="231" name="402" type="Multiply" version="opset1">
			<data auto_broadcast="numpy" />
			<input>
				<port id="0" precision="FP32">
					<dim>512</dim>
					<dim>1</dim>
					<dim>3</dim>
					<dim>3</dim>
				</port>
				<port id="1" precision="FP32">
					<dim>1</dim>
					<dim>1</dim>
					<dim>1</dim>
					<dim>1</dim>
				</port>
			</input>
			<output>
				<port id="2" precision="FP32" names="402">
					<dim>512</dim>
					<dim>1</dim>
					<dim>3</dim>
					<dim>3</dim>
				</port>
			</output>
		</layer>
		<layer id="232" name="Reshape_4995" type="Const" version="opset1">
			<data element_type="f32" shape="512, 1, 1, 1" offset="328321" size="2048" />
			<output>
				<port id="0" precision="FP32">
					<dim>512</dim>
					<dim>1</dim>
					<dim>1</dim>
					<dim>1</dim>
				</port>
			</output>
		</layer>
		<layer id="233" name="Multiply_4996" type="Multiply" version="opset1">
			<data auto_broadcast="numpy" />
			<input>
				<port id="0" precision="FP32">
					<dim>512</dim>
					<dim>1</dim>
					<dim>3</dim>
					<dim>3</dim>
				</port>
				<port id="1" precision="FP32">
					<dim>512</dim>
					<dim>1</dim>
					<dim>1</dim>
					<dim>1</dim>
				</port>
			</input>
			<output>
				<port id="2" precision="FP32">
					<dim>512</dim>
					<dim>1</dim>
					<dim>3</dim>
					<dim>3</dim>
				</port>
			</output>
		</layer>
		<layer id="234" name="Constant_657" type="Const" version="opset1">
			<data element_type="i64" shape="1" offset="330369" size="8" />
			<output>
				<port id="0" precision="I64">
					<dim>1</dim>
				</port>
			</output>
		</layer>
		<layer id="235" name="ShapeOf_658" type="ShapeOf" version="opset3">
			<data output_type="i64" />
			<input>
				<port id="0" precision="FP32">
					<dim>512</dim>
					<dim>1</dim>
					<dim>3</dim>
					<dim>3</dim>
				</port>
			</input>
			<output>
				<port id="1" precision="I64">
					<dim>4</dim>
				</port>
			</output>
		</layer>
		<layer id="236" name="Constant_655" type="Const" version="opset1">
			<data element_type="i64" shape="" offset="46109" size="8" />
			<output>
				<port id="0" precision="I64" />
			</output>
		</layer>
		<layer id="237" name="Constant_656" type="Const" version="opset1">
			<data element_type="i64" shape="2" offset="46117" size="16" />
			<output>
				<port id="0" precision="I64">
					<dim>2</dim>
				</port>
			</output>
		</layer>
		<layer id="238" name="VariadicSplit_659" type="VariadicSplit" version="opset1">
			<input>
				<port id="0" precision="I64">
					<dim>4</dim>
				</port>
				<port id="1" precision="I64" />
				<port id="2" precision="I64">
					<dim>2</dim>
				</port>
			</input>
			<output>
				<port id="3" precision="I64">
					<dim>1</dim>
				</port>
				<port id="4" precision="I64">
					<dim>3</dim>
				</port>
			</output>
		</layer>
		<layer id="239" name="Divide_660" type="Divide" version="opset1">
			<data auto_broadcast="numpy" m_pythondiv="true" />
			<input>
				<port id="0" precision="I64">
					<dim>1</dim>
				</port>
				<port id="1" precision="I64">
					<dim>1</dim>
				</port>
			</input>
			<output>
				<port id="2" precision="I64">
					<dim>1</dim>
				</port>
			</output>
		</layer>
		<layer id="240" name="Concat_661" type="Concat" version="opset1">
			<data axis="0" />
			<input>
				<port id="0" precision="I64">
					<dim>1</dim>
				</port>
				<port id="1" precision="I64">
					<dim>1</dim>
				</port>
				<port id="2" precision="I64">
					<dim>3</dim>
				</port>
			</input>
			<output>
				<port id="3" precision="I64">
					<dim>5</dim>
				</port>
			</output>
		</layer>
		<layer id="241" name="Reshape_662" type="Reshape" version="opset1">
			<data special_zero="false" />
			<input>
				<port id="0" precision="FP32">
					<dim>512</dim>
					<dim>1</dim>
					<dim>3</dim>
					<dim>3</dim>
				</port>
				<port id="1" precision="I64">
					<dim>5</dim>
				</port>
			</input>
			<output>
				<port id="2" precision="FP32">
					<dim>512</dim>
					<dim>1</dim>
					<dim>1</dim>
					<dim>3</dim>
					<dim>3</dim>
				</port>
			</output>
		</layer>
		<layer id="242" name="Multiply_4903" type="GroupConvolution" version="opset1">
			<data strides="1, 1" pads_begin="1, 1" pads_end="1, 1" dilations="1, 1" auto_pad="explicit" />
			<input>
				<port id="0" precision="FP32">
					<dim>1</dim>
					<dim>512</dim>
					<dim>21</dim>
					<dim>17</dim>
				</port>
				<port id="1" precision="FP32">
					<dim>512</dim>
					<dim>1</dim>
					<dim>1</dim>
					<dim>3</dim>
					<dim>3</dim>
				</port>
			</input>
			<output>
				<port id="2" precision="FP32" names="403">
					<dim>1</dim>
					<dim>512</dim>
					<dim>21</dim>
					<dim>17</dim>
				</port>
			</output>
		</layer>
		<layer id="243" name="Constant_4908" type="Const" version="opset1">
			<data element_type="f32" shape="1, 512, 1, 1" offset="330377" size="2048" />
			<output>
				<port id="0" precision="FP32">
					<dim>1</dim>
					<dim>512</dim>
					<dim>1</dim>
					<dim>1</dim>
				</port>
			</output>
		</layer>
		<layer id="244" name="404" type="Add" version="opset1">
			<data auto_broadcast="numpy" />
			<input>
				<port id="0" precision="FP32">
					<dim>1</dim>
					<dim>512</dim>
					<dim>21</dim>
					<dim>17</dim>
				</port>
				<port id="1" precision="FP32">
					<dim>1</dim>
					<dim>512</dim>
					<dim>1</dim>
					<dim>1</dim>
				</port>
			</input>
			<output>
				<port id="2" precision="FP32" names="404">
					<dim>1</dim>
					<dim>512</dim>
					<dim>21</dim>
					<dim>17</dim>
				</port>
			</output>
		</layer>
		<layer id="245" name="Constant_5284" type="Const" version="opset1">
			<data element_type="f32" shape="1, 1, 1, 1" offset="2632" size="4" />
			<output>
				<port id="0" precision="FP32">
					<dim>1</dim>
					<dim>1</dim>
					<dim>1</dim>
					<dim>1</dim>
				</port>
			</output>
		</layer>
		<layer id="246" name="Constant_5285" type="Const" version="opset1">
			<data element_type="f32" shape="1, 1, 1, 1" offset="332425" size="4" />
			<output>
				<port id="0" precision="FP32">
					<dim>1</dim>
					<dim>1</dim>
					<dim>1</dim>
					<dim>1</dim>
				</port>
			</output>
		</layer>
		<layer id="247" name="Constant_5286" type="Const" version="opset1">
			<data element_type="f32" shape="1, 1, 1, 1" offset="2632" size="4" />
			<output>
				<port id="0" precision="FP32">
					<dim>1</dim>
					<dim>1</dim>
					<dim>1</dim>
					<dim>1</dim>
				</port>
			</output>
		</layer>
		<layer id="248" name="Constant_5287" type="Const" version="opset1">
			<data element_type="f32" shape="1, 1, 1, 1" offset="332425" size="4" />
			<output>
				<port id="0" precision="FP32">
					<dim>1</dim>
					<dim>1</dim>
					<dim>1</dim>
					<dim>1</dim>
				</port>
			</output>
		</layer>
		<layer id="249" name="408" type="FakeQuantize" version="opset1">
			<data levels="256" auto_broadcast="numpy" />
			<input>
				<port id="0" precision="FP32">
					<dim>1</dim>
					<dim>512</dim>
					<dim>21</dim>
					<dim>17</dim>
				</port>
				<port id="1" precision="FP32">
					<dim>1</dim>
					<dim>1</dim>
					<dim>1</dim>
					<dim>1</dim>
				</port>
				<port id="2" precision="FP32">
					<dim>1</dim>
					<dim>1</dim>
					<dim>1</dim>
					<dim>1</dim>
				</port>
				<port id="3" precision="FP32">
					<dim>1</dim>
					<dim>1</dim>
					<dim>1</dim>
					<dim>1</dim>
				</port>
				<port id="4" precision="FP32">
					<dim>1</dim>
					<dim>1</dim>
					<dim>1</dim>
					<dim>1</dim>
				</port>
			</input>
			<output>
				<port id="5" precision="FP32" names="408">
					<dim>1</dim>
					<dim>512</dim>
					<dim>21</dim>
					<dim>17</dim>
				</port>
			</output>
		</layer>
		<layer id="250" name="Constant_5773" type="Const" version="opset1">
			<data element_type="i8" shape="512, 512, 1, 1" offset="332429" size="262144" />
			<output>
				<port id="0" precision="I8">
					<dim>512</dim>
					<dim>512</dim>
					<dim>1</dim>
					<dim>1</dim>
				</port>
			</output>
		</layer>
		<layer id="251" name="Convert_5774" type="Convert" version="opset1">
			<data destination_type="f32" />
			<input>
				<port id="0" precision="I8">
					<dim>512</dim>
					<dim>512</dim>
					<dim>1</dim>
					<dim>1</dim>
				</port>
			</input>
			<output>
				<port id="1" precision="FP32">
					<dim>512</dim>
					<dim>512</dim>
					<dim>1</dim>
					<dim>1</dim>
				</port>
			</output>
		</layer>
		<layer id="252" name="Constant_5775" type="Const" version="opset1">
			<data element_type="f32" shape="512, 1, 1, 1" offset="594573" size="2048" />
			<output>
				<port id="0" precision="FP32">
					<dim>512</dim>
					<dim>1</dim>
					<dim>1</dim>
					<dim>1</dim>
				</port>
			</output>
		</layer>
		<layer id="253" name="Multiply_4999" type="Multiply" version="opset1">
			<data auto_broadcast="numpy" />
			<input>
				<port id="0" precision="FP32">
					<dim>512</dim>
					<dim>512</dim>
					<dim>1</dim>
					<dim>1</dim>
				</port>
				<port id="1" precision="FP32">
					<dim>512</dim>
					<dim>1</dim>
					<dim>1</dim>
					<dim>1</dim>
				</port>
			</input>
			<output>
				<port id="2" precision="FP32">
					<dim>512</dim>
					<dim>512</dim>
					<dim>1</dim>
					<dim>1</dim>
				</port>
			</output>
		</layer>
		<layer id="254" name="Multiply_4910" type="Convolution" version="opset1">
			<data strides="1, 1" dilations="1, 1" pads_begin="1, 1" pads_end="1, 1" auto_pad="explicit" />
			<input>
				<port id="0" precision="FP32">
					<dim>1</dim>
					<dim>512</dim>
					<dim>21</dim>
					<dim>17</dim>
				</port>
				<port id="1" precision="FP32">
					<dim>512</dim>
					<dim>512</dim>
					<dim>1</dim>
					<dim>1</dim>
				</port>
			</input>
			<output>
				<port id="2" precision="FP32">
					<dim>1</dim>
					<dim>512</dim>
					<dim>23</dim>
					<dim>19</dim>
				</port>
			</output>
		</layer>
		<layer id="255" name="Constant_4915" type="Const" version="opset1">
			<data element_type="f32" shape="1, 512, 1, 1" offset="596621" size="2048" />
			<output>
				<port id="0" precision="FP32">
					<dim>1</dim>
					<dim>512</dim>
					<dim>1</dim>
					<dim>1</dim>
				</port>
			</output>
		</layer>
		<layer id="256" name="413" type="Add" version="opset1">
			<data auto_broadcast="numpy" />
			<input>
				<port id="0" precision="FP32">
					<dim>1</dim>
					<dim>512</dim>
					<dim>23</dim>
					<dim>19</dim>
				</port>
				<port id="1" precision="FP32">
					<dim>1</dim>
					<dim>512</dim>
					<dim>1</dim>
					<dim>1</dim>
				</port>
			</input>
			<output>
				<port id="2" precision="FP32" names="413">
					<dim>1</dim>
					<dim>512</dim>
					<dim>23</dim>
					<dim>19</dim>
				</port>
			</output>
		</layer>
		<layer id="257" name="Constant_5290" type="Const" version="opset1">
			<data element_type="f32" shape="1, 1, 1, 1" offset="2632" size="4" />
			<output>
				<port id="0" precision="FP32">
					<dim>1</dim>
					<dim>1</dim>
					<dim>1</dim>
					<dim>1</dim>
				</port>
			</output>
		</layer>
		<layer id="258" name="Constant_5291" type="Const" version="opset1">
			<data element_type="f32" shape="1, 1, 1, 1" offset="598669" size="4" />
			<output>
				<port id="0" precision="FP32">
					<dim>1</dim>
					<dim>1</dim>
					<dim>1</dim>
					<dim>1</dim>
				</port>
			</output>
		</layer>
		<layer id="259" name="Constant_5292" type="Const" version="opset1">
			<data element_type="f32" shape="1, 1, 1, 1" offset="2632" size="4" />
			<output>
				<port id="0" precision="FP32">
					<dim>1</dim>
					<dim>1</dim>
					<dim>1</dim>
					<dim>1</dim>
				</port>
			</output>
		</layer>
		<layer id="260" name="Constant_5293" type="Const" version="opset1">
			<data element_type="f32" shape="1, 1, 1, 1" offset="598669" size="4" />
			<output>
				<port id="0" precision="FP32">
					<dim>1</dim>
					<dim>1</dim>
					<dim>1</dim>
					<dim>1</dim>
				</port>
			</output>
		</layer>
		<layer id="261" name="417" type="FakeQuantize" version="opset1">
			<data levels="256" auto_broadcast="numpy" />
			<input>
				<port id="0" precision="FP32">
					<dim>1</dim>
					<dim>512</dim>
					<dim>23</dim>
					<dim>19</dim>
				</port>
				<port id="1" precision="FP32">
					<dim>1</dim>
					<dim>1</dim>
					<dim>1</dim>
					<dim>1</dim>
				</port>
				<port id="2" precision="FP32">
					<dim>1</dim>
					<dim>1</dim>
					<dim>1</dim>
					<dim>1</dim>
				</port>
				<port id="3" precision="FP32">
					<dim>1</dim>
					<dim>1</dim>
					<dim>1</dim>
					<dim>1</dim>
				</port>
				<port id="4" precision="FP32">
					<dim>1</dim>
					<dim>1</dim>
					<dim>1</dim>
					<dim>1</dim>
				</port>
			</input>
			<output>
				<port id="5" precision="FP32" names="417">
					<dim>1</dim>
					<dim>512</dim>
					<dim>23</dim>
					<dim>19</dim>
				</port>
			</output>
		</layer>
		<layer id="262" name="418" type="MaxPool" version="opset8">
			<data strides="2, 2" dilations="1, 1" pads_begin="0, 0" pads_end="0, 0" kernel="2, 2" rounding_type="floor" auto_pad="explicit" index_element_type="i64" axis="0" />
			<input>
				<port id="0" precision="FP32">
					<dim>1</dim>
					<dim>512</dim>
					<dim>23</dim>
					<dim>19</dim>
				</port>
			</input>
			<output>
				<port id="1" precision="FP32" names="418">
					<dim>1</dim>
					<dim>512</dim>
					<dim>11</dim>
					<dim>9</dim>
				</port>
				<port id="2" precision="I64">
					<dim>1</dim>
					<dim>512</dim>
					<dim>11</dim>
					<dim>9</dim>
				</port>
			</output>
		</layer>
		<layer id="263" name="Constant_5777" type="Const" version="opset1">
			<data element_type="i8" shape="512, 1, 3, 3" offset="598673" size="4608" />
			<output>
				<port id="0" precision="I8">
					<dim>512</dim>
					<dim>1</dim>
					<dim>3</dim>
					<dim>3</dim>
				</port>
			</output>
		</layer>
		<layer id="264" name="Convert_5778" type="Convert" version="opset1">
			<data destination_type="f32" />
			<input>
				<port id="0" precision="I8">
					<dim>512</dim>
					<dim>1</dim>
					<dim>3</dim>
					<dim>3</dim>
				</port>
			</input>
			<output>
				<port id="1" precision="FP32">
					<dim>512</dim>
					<dim>1</dim>
					<dim>3</dim>
					<dim>3</dim>
				</port>
			</output>
		</layer>
		<layer id="265" name="Constant_5779" type="Const" version="opset1">
			<data element_type="f32" shape="1, 1, 1, 1" offset="603281" size="4" />
			<output>
				<port id="0" precision="FP32">
					<dim>1</dim>
					<dim>1</dim>
					<dim>1</dim>
					<dim>1</dim>
				</port>
			</output>
		</layer>
		<layer id="266" name="421" type="Multiply" version="opset1">
			<data auto_broadcast="numpy" />
			<input>
				<port id="0" precision="FP32">
					<dim>512</dim>
					<dim>1</dim>
					<dim>3</dim>
					<dim>3</dim>
				</port>
				<port id="1" precision="FP32">
					<dim>1</dim>
					<dim>1</dim>
					<dim>1</dim>
					<dim>1</dim>
				</port>
			</input>
			<output>
				<port id="2" precision="FP32" names="421">
					<dim>512</dim>
					<dim>1</dim>
					<dim>3</dim>
					<dim>3</dim>
				</port>
			</output>
		</layer>
		<layer id="267" name="Reshape_5002" type="Const" version="opset1">
			<data element_type="f32" shape="512, 1, 1, 1" offset="603285" size="2048" />
			<output>
				<port id="0" precision="FP32">
					<dim>512</dim>
					<dim>1</dim>
					<dim>1</dim>
					<dim>1</dim>
				</port>
			</output>
		</layer>
		<layer id="268" name="Multiply_5003" type="Multiply" version="opset1">
			<data auto_broadcast="numpy" />
			<input>
				<port id="0" precision="FP32">
					<dim>512</dim>
					<dim>1</dim>
					<dim>3</dim>
					<dim>3</dim>
				</port>
				<port id="1" precision="FP32">
					<dim>512</dim>
					<dim>1</dim>
					<dim>1</dim>
					<dim>1</dim>
				</port>
			</input>
			<output>
				<port id="2" precision="FP32">
					<dim>512</dim>
					<dim>1</dim>
					<dim>3</dim>
					<dim>3</dim>
				</port>
			</output>
		</layer>
		<layer id="269" name="Constant_725" type="Const" version="opset1">
			<data element_type="i64" shape="1" offset="330369" size="8" />
			<output>
				<port id="0" precision="I64">
					<dim>1</dim>
				</port>
			</output>
		</layer>
		<layer id="270" name="ShapeOf_726" type="ShapeOf" version="opset3">
			<data output_type="i64" />
			<input>
				<port id="0" precision="FP32">
					<dim>512</dim>
					<dim>1</dim>
					<dim>3</dim>
					<dim>3</dim>
				</port>
			</input>
			<output>
				<port id="1" precision="I64">
					<dim>4</dim>
				</port>
			</output>
		</layer>
		<layer id="271" name="Constant_723" type="Const" version="opset1">
			<data element_type="i64" shape="" offset="46109" size="8" />
			<output>
				<port id="0" precision="I64" />
			</output>
		</layer>
		<layer id="272" name="Constant_724" type="Const" version="opset1">
			<data element_type="i64" shape="2" offset="46117" size="16" />
			<output>
				<port id="0" precision="I64">
					<dim>2</dim>
				</port>
			</output>
		</layer>
		<layer id="273" name="VariadicSplit_727" type="VariadicSplit" version="opset1">
			<input>
				<port id="0" precision="I64">
					<dim>4</dim>
				</port>
				<port id="1" precision="I64" />
				<port id="2" precision="I64">
					<dim>2</dim>
				</port>
			</input>
			<output>
				<port id="3" precision="I64">
					<dim>1</dim>
				</port>
				<port id="4" precision="I64">
					<dim>3</dim>
				</port>
			</output>
		</layer>
		<layer id="274" name="Divide_728" type="Divide" version="opset1">
			<data auto_broadcast="numpy" m_pythondiv="true" />
			<input>
				<port id="0" precision="I64">
					<dim>1</dim>
				</port>
				<port id="1" precision="I64">
					<dim>1</dim>
				</port>
			</input>
			<output>
				<port id="2" precision="I64">
					<dim>1</dim>
				</port>
			</output>
		</layer>
		<layer id="275" name="Concat_729" type="Concat" version="opset1">
			<data axis="0" />
			<input>
				<port id="0" precision="I64">
					<dim>1</dim>
				</port>
				<port id="1" precision="I64">
					<dim>1</dim>
				</port>
				<port id="2" precision="I64">
					<dim>3</dim>
				</port>
			</input>
			<output>
				<port id="3" precision="I64">
					<dim>5</dim>
				</port>
			</output>
		</layer>
		<layer id="276" name="Reshape_730" type="Reshape" version="opset1">
			<data special_zero="false" />
			<input>
				<port id="0" precision="FP32">
					<dim>512</dim>
					<dim>1</dim>
					<dim>3</dim>
					<dim>3</dim>
				</port>
				<port id="1" precision="I64">
					<dim>5</dim>
				</port>
			</input>
			<output>
				<port id="2" precision="FP32">
					<dim>512</dim>
					<dim>1</dim>
					<dim>1</dim>
					<dim>3</dim>
					<dim>3</dim>
				</port>
			</output>
		</layer>
		<layer id="277" name="Multiply_4917" type="GroupConvolution" version="opset1">
			<data strides="1, 1" pads_begin="1, 1" pads_end="1, 1" dilations="1, 1" auto_pad="explicit" />
			<input>
				<port id="0" precision="FP32">
					<dim>1</dim>
					<dim>512</dim>
					<dim>11</dim>
					<dim>9</dim>
				</port>
				<port id="1" precision="FP32">
					<dim>512</dim>
					<dim>1</dim>
					<dim>1</dim>
					<dim>3</dim>
					<dim>3</dim>
				</port>
			</input>
			<output>
				<port id="2" precision="FP32" names="422">
					<dim>1</dim>
					<dim>512</dim>
					<dim>11</dim>
					<dim>9</dim>
				</port>
			</output>
		</layer>
		<layer id="278" name="Constant_4922" type="Const" version="opset1">
			<data element_type="f32" shape="1, 512, 1, 1" offset="605333" size="2048" />
			<output>
				<port id="0" precision="FP32">
					<dim>1</dim>
					<dim>512</dim>
					<dim>1</dim>
					<dim>1</dim>
				</port>
			</output>
		</layer>
		<layer id="279" name="423" type="Add" version="opset1">
			<data auto_broadcast="numpy" />
			<input>
				<port id="0" precision="FP32">
					<dim>1</dim>
					<dim>512</dim>
					<dim>11</dim>
					<dim>9</dim>
				</port>
				<port id="1" precision="FP32">
					<dim>1</dim>
					<dim>512</dim>
					<dim>1</dim>
					<dim>1</dim>
				</port>
			</input>
			<output>
				<port id="2" precision="FP32" names="423">
					<dim>1</dim>
					<dim>512</dim>
					<dim>11</dim>
					<dim>9</dim>
				</port>
			</output>
		</layer>
		<layer id="280" name="Constant_5298" type="Const" version="opset1">
			<data element_type="f32" shape="1, 1, 1, 1" offset="2632" size="4" />
			<output>
				<port id="0" precision="FP32">
					<dim>1</dim>
					<dim>1</dim>
					<dim>1</dim>
					<dim>1</dim>
				</port>
			</output>
		</layer>
		<layer id="281" name="Constant_5299" type="Const" version="opset1">
			<data element_type="f32" shape="1, 1, 1, 1" offset="607381" size="4" />
			<output>
				<port id="0" precision="FP32">
					<dim>1</dim>
					<dim>1</dim>
					<dim>1</dim>
					<dim>1</dim>
				</port>
			</output>
		</layer>
		<layer id="282" name="Constant_5300" type="Const" version="opset1">
			<data element_type="f32" shape="1, 1, 1, 1" offset="2632" size="4" />
			<output>
				<port id="0" precision="FP32">
					<dim>1</dim>
					<dim>1</dim>
					<dim>1</dim>
					<dim>1</dim>
				</port>
			</output>
		</layer>
		<layer id="283" name="Constant_5301" type="Const" version="opset1">
			<data element_type="f32" shape="1, 1, 1, 1" offset="607381" size="4" />
			<output>
				<port id="0" precision="FP32">
					<dim>1</dim>
					<dim>1</dim>
					<dim>1</dim>
					<dim>1</dim>
				</port>
			</output>
		</layer>
		<layer id="284" name="427" type="FakeQuantize" version="opset1">
			<data levels="256" auto_broadcast="numpy" />
			<input>
				<port id="0" precision="FP32">
					<dim>1</dim>
					<dim>512</dim>
					<dim>11</dim>
					<dim>9</dim>
				</port>
				<port id="1" precision="FP32">
					<dim>1</dim>
					<dim>1</dim>
					<dim>1</dim>
					<dim>1</dim>
				</port>
				<port id="2" precision="FP32">
					<dim>1</dim>
					<dim>1</dim>
					<dim>1</dim>
					<dim>1</dim>
				</port>
				<port id="3" precision="FP32">
					<dim>1</dim>
					<dim>1</dim>
					<dim>1</dim>
					<dim>1</dim>
				</port>
				<port id="4" precision="FP32">
					<dim>1</dim>
					<dim>1</dim>
					<dim>1</dim>
					<dim>1</dim>
				</port>
			</input>
			<output>
				<port id="5" precision="FP32" names="427">
					<dim>1</dim>
					<dim>512</dim>
					<dim>11</dim>
					<dim>9</dim>
				</port>
			</output>
		</layer>
		<layer id="285" name="Constant_5781" type="Const" version="opset1">
			<data element_type="i8" shape="1024, 512, 1, 1" offset="607385" size="524288" />
			<output>
				<port id="0" precision="I8">
					<dim>1024</dim>
					<dim>512</dim>
					<dim>1</dim>
					<dim>1</dim>
				</port>
			</output>
		</layer>
		<layer id="286" name="Convert_5782" type="Convert" version="opset1">
			<data destination_type="f32" />
			<input>
				<port id="0" precision="I8">
					<dim>1024</dim>
					<dim>512</dim>
					<dim>1</dim>
					<dim>1</dim>
				</port>
			</input>
			<output>
				<port id="1" precision="FP32">
					<dim>1024</dim>
					<dim>512</dim>
					<dim>1</dim>
					<dim>1</dim>
				</port>
			</output>
		</layer>
		<layer id="287" name="Constant_5783" type="Const" version="opset1">
			<data element_type="f32" shape="1024, 1, 1, 1" offset="1131673" size="4096" />
			<output>
				<port id="0" precision="FP32">
					<dim>1024</dim>
					<dim>1</dim>
					<dim>1</dim>
					<dim>1</dim>
				</port>
			</output>
		</layer>
		<layer id="288" name="Multiply_5006" type="Multiply" version="opset1">
			<data auto_broadcast="numpy" />
			<input>
				<port id="0" precision="FP32">
					<dim>1024</dim>
					<dim>512</dim>
					<dim>1</dim>
					<dim>1</dim>
				</port>
				<port id="1" precision="FP32">
					<dim>1024</dim>
					<dim>1</dim>
					<dim>1</dim>
					<dim>1</dim>
				</port>
			</input>
			<output>
				<port id="2" precision="FP32">
					<dim>1024</dim>
					<dim>512</dim>
					<dim>1</dim>
					<dim>1</dim>
				</port>
			</output>
		</layer>
		<layer id="289" name="Multiply_4924" type="Convolution" version="opset1">
			<data strides="1, 1" dilations="1, 1" pads_begin="1, 1" pads_end="1, 1" auto_pad="explicit" />
			<input>
				<port id="0" precision="FP32">
					<dim>1</dim>
					<dim>512</dim>
					<dim>11</dim>
					<dim>9</dim>
				</port>
				<port id="1" precision="FP32">
					<dim>1024</dim>
					<dim>512</dim>
					<dim>1</dim>
					<dim>1</dim>
				</port>
			</input>
			<output>
				<port id="2" precision="FP32">
					<dim>1</dim>
					<dim>1024</dim>
					<dim>13</dim>
					<dim>11</dim>
				</port>
			</output>
		</layer>
		<layer id="290" name="Constant_4929" type="Const" version="opset1">
			<data element_type="f32" shape="1, 1024, 1, 1" offset="1135769" size="4096" />
			<output>
				<port id="0" precision="FP32">
					<dim>1</dim>
					<dim>1024</dim>
					<dim>1</dim>
					<dim>1</dim>
				</port>
			</output>
		</layer>
		<layer id="291" name="432" type="Add" version="opset1">
			<data auto_broadcast="numpy" />
			<input>
				<port id="0" precision="FP32">
					<dim>1</dim>
					<dim>1024</dim>
					<dim>13</dim>
					<dim>11</dim>
				</port>
				<port id="1" precision="FP32">
					<dim>1</dim>
					<dim>1024</dim>
					<dim>1</dim>
					<dim>1</dim>
				</port>
			</input>
			<output>
				<port id="2" precision="FP32" names="432">
					<dim>1</dim>
					<dim>1024</dim>
					<dim>13</dim>
					<dim>11</dim>
				</port>
			</output>
		</layer>
		<layer id="292" name="Constant_5304" type="Const" version="opset1">
			<data element_type="f32" shape="1, 1, 1, 1" offset="2632" size="4" />
			<output>
				<port id="0" precision="FP32">
					<dim>1</dim>
					<dim>1</dim>
					<dim>1</dim>
					<dim>1</dim>
				</port>
			</output>
		</layer>
		<layer id="293" name="Constant_5305" type="Const" version="opset1">
			<data element_type="f32" shape="1, 1, 1, 1" offset="1139865" size="4" />
			<output>
				<port id="0" precision="FP32">
					<dim>1</dim>
					<dim>1</dim>
					<dim>1</dim>
					<dim>1</dim>
				</port>
			</output>
		</layer>
		<layer id="294" name="Constant_5306" type="Const" version="opset1">
			<data element_type="f32" shape="1, 1, 1, 1" offset="2632" size="4" />
			<output>
				<port id="0" precision="FP32">
					<dim>1</dim>
					<dim>1</dim>
					<dim>1</dim>
					<dim>1</dim>
				</port>
			</output>
		</layer>
		<layer id="295" name="Constant_5307" type="Const" version="opset1">
			<data element_type="f32" shape="1, 1, 1, 1" offset="1139865" size="4" />
			<output>
				<port id="0" precision="FP32">
					<dim>1</dim>
					<dim>1</dim>
					<dim>1</dim>
					<dim>1</dim>
				</port>
			</output>
		</layer>
		<layer id="296" name="436" type="FakeQuantize" version="opset1">
			<data levels="256" auto_broadcast="numpy" />
			<input>
				<port id="0" precision="FP32">
					<dim>1</dim>
					<dim>1024</dim>
					<dim>13</dim>
					<dim>11</dim>
				</port>
				<port id="1" precision="FP32">
					<dim>1</dim>
					<dim>1</dim>
					<dim>1</dim>
					<dim>1</dim>
				</port>
				<port id="2" precision="FP32">
					<dim>1</dim>
					<dim>1</dim>
					<dim>1</dim>
					<dim>1</dim>
				</port>
				<port id="3" precision="FP32">
					<dim>1</dim>
					<dim>1</dim>
					<dim>1</dim>
					<dim>1</dim>
				</port>
				<port id="4" precision="FP32">
					<dim>1</dim>
					<dim>1</dim>
					<dim>1</dim>
					<dim>1</dim>
				</port>
			</input>
			<output>
				<port id="5" precision="FP32" names="436">
					<dim>1</dim>
					<dim>1024</dim>
					<dim>13</dim>
					<dim>11</dim>
				</port>
			</output>
		</layer>
		<layer id="297" name="Constant_5785" type="Const" version="opset1">
			<data element_type="i8" shape="1024, 1, 3, 3" offset="1139869" size="9216" />
			<output>
				<port id="0" precision="I8">
					<dim>1024</dim>
					<dim>1</dim>
					<dim>3</dim>
					<dim>3</dim>
				</port>
			</output>
		</layer>
		<layer id="298" name="Convert_5786" type="Convert" version="opset1">
			<data destination_type="f32" />
			<input>
				<port id="0" precision="I8">
					<dim>1024</dim>
					<dim>1</dim>
					<dim>3</dim>
					<dim>3</dim>
				</port>
			</input>
			<output>
				<port id="1" precision="FP32">
					<dim>1024</dim>
					<dim>1</dim>
					<dim>3</dim>
					<dim>3</dim>
				</port>
			</output>
		</layer>
		<layer id="299" name="Constant_5787" type="Const" version="opset1">
			<data element_type="f32" shape="1, 1, 1, 1" offset="1149085" size="4" />
			<output>
				<port id="0" precision="FP32">
					<dim>1</dim>
					<dim>1</dim>
					<dim>1</dim>
					<dim>1</dim>
				</port>
			</output>
		</layer>
		<layer id="300" name="439" type="Multiply" version="opset1">
			<data auto_broadcast="numpy" />
			<input>
				<port id="0" precision="FP32">
					<dim>1024</dim>
					<dim>1</dim>
					<dim>3</dim>
					<dim>3</dim>
				</port>
				<port id="1" precision="FP32">
					<dim>1</dim>
					<dim>1</dim>
					<dim>1</dim>
					<dim>1</dim>
				</port>
			</input>
			<output>
				<port id="2" precision="FP32" names="439">
					<dim>1024</dim>
					<dim>1</dim>
					<dim>3</dim>
					<dim>3</dim>
				</port>
			</output>
		</layer>
		<layer id="301" name="Reshape_5009" type="Const" version="opset1">
			<data element_type="f32" shape="1024, 1, 1, 1" offset="1149089" size="4096" />
			<output>
				<port id="0" precision="FP32">
					<dim>1024</dim>
					<dim>1</dim>
					<dim>1</dim>
					<dim>1</dim>
				</port>
			</output>
		</layer>
		<layer id="302" name="Multiply_5010" type="Multiply" version="opset1">
			<data auto_broadcast="numpy" />
			<input>
				<port id="0" precision="FP32">
					<dim>1024</dim>
					<dim>1</dim>
					<dim>3</dim>
					<dim>3</dim>
				</port>
				<port id="1" precision="FP32">
					<dim>1024</dim>
					<dim>1</dim>
					<dim>1</dim>
					<dim>1</dim>
				</port>
			</input>
			<output>
				<port id="2" precision="FP32">
					<dim>1024</dim>
					<dim>1</dim>
					<dim>3</dim>
					<dim>3</dim>
				</port>
			</output>
		</layer>
		<layer id="303" name="Constant_792" type="Const" version="opset1">
			<data element_type="i64" shape="1" offset="1153185" size="8" />
			<output>
				<port id="0" precision="I64">
					<dim>1</dim>
				</port>
			</output>
		</layer>
		<layer id="304" name="ShapeOf_793" type="ShapeOf" version="opset3">
			<data output_type="i64" />
			<input>
				<port id="0" precision="FP32">
					<dim>1024</dim>
					<dim>1</dim>
					<dim>3</dim>
					<dim>3</dim>
				</port>
			</input>
			<output>
				<port id="1" precision="I64">
					<dim>4</dim>
				</port>
			</output>
		</layer>
		<layer id="305" name="Constant_790" type="Const" version="opset1">
			<data element_type="i64" shape="" offset="46109" size="8" />
			<output>
				<port id="0" precision="I64" />
			</output>
		</layer>
		<layer id="306" name="Constant_791" type="Const" version="opset1">
			<data element_type="i64" shape="2" offset="46117" size="16" />
			<output>
				<port id="0" precision="I64">
					<dim>2</dim>
				</port>
			</output>
		</layer>
		<layer id="307" name="VariadicSplit_794" type="VariadicSplit" version="opset1">
			<input>
				<port id="0" precision="I64">
					<dim>4</dim>
				</port>
				<port id="1" precision="I64" />
				<port id="2" precision="I64">
					<dim>2</dim>
				</port>
			</input>
			<output>
				<port id="3" precision="I64">
					<dim>1</dim>
				</port>
				<port id="4" precision="I64">
					<dim>3</dim>
				</port>
			</output>
		</layer>
		<layer id="308" name="Divide_795" type="Divide" version="opset1">
			<data auto_broadcast="numpy" m_pythondiv="true" />
			<input>
				<port id="0" precision="I64">
					<dim>1</dim>
				</port>
				<port id="1" precision="I64">
					<dim>1</dim>
				</port>
			</input>
			<output>
				<port id="2" precision="I64">
					<dim>1</dim>
				</port>
			</output>
		</layer>
		<layer id="309" name="Concat_796" type="Concat" version="opset1">
			<data axis="0" />
			<input>
				<port id="0" precision="I64">
					<dim>1</dim>
				</port>
				<port id="1" precision="I64">
					<dim>1</dim>
				</port>
				<port id="2" precision="I64">
					<dim>3</dim>
				</port>
			</input>
			<output>
				<port id="3" precision="I64">
					<dim>5</dim>
				</port>
			</output>
		</layer>
		<layer id="310" name="Reshape_797" type="Reshape" version="opset1">
			<data special_zero="false" />
			<input>
				<port id="0" precision="FP32">
					<dim>1024</dim>
					<dim>1</dim>
					<dim>3</dim>
					<dim>3</dim>
				</port>
				<port id="1" precision="I64">
					<dim>5</dim>
				</port>
			</input>
			<output>
				<port id="2" precision="FP32">
					<dim>1024</dim>
					<dim>1</dim>
					<dim>1</dim>
					<dim>3</dim>
					<dim>3</dim>
				</port>
			</output>
		</layer>
		<layer id="311" name="Multiply_4931" type="GroupConvolution" version="opset1">
			<data strides="1, 1" pads_begin="1, 1" pads_end="1, 1" dilations="1, 1" auto_pad="explicit" />
			<input>
				<port id="0" precision="FP32">
					<dim>1</dim>
					<dim>1024</dim>
					<dim>13</dim>
					<dim>11</dim>
				</port>
				<port id="1" precision="FP32">
					<dim>1024</dim>
					<dim>1</dim>
					<dim>1</dim>
					<dim>3</dim>
					<dim>3</dim>
				</port>
			</input>
			<output>
				<port id="2" precision="FP32" names="440">
					<dim>1</dim>
					<dim>1024</dim>
					<dim>13</dim>
					<dim>11</dim>
				</port>
			</output>
		</layer>
		<layer id="312" name="Constant_4936" type="Const" version="opset1">
			<data element_type="f32" shape="1, 1024, 1, 1" offset="1153193" size="4096" />
			<output>
				<port id="0" precision="FP32">
					<dim>1</dim>
					<dim>1024</dim>
					<dim>1</dim>
					<dim>1</dim>
				</port>
			</output>
		</layer>
		<layer id="313" name="441" type="Add" version="opset1">
			<data auto_broadcast="numpy" />
			<input>
				<port id="0" precision="FP32">
					<dim>1</dim>
					<dim>1024</dim>
					<dim>13</dim>
					<dim>11</dim>
				</port>
				<port id="1" precision="FP32">
					<dim>1</dim>
					<dim>1024</dim>
					<dim>1</dim>
					<dim>1</dim>
				</port>
			</input>
			<output>
				<port id="2" precision="FP32" names="441">
					<dim>1</dim>
					<dim>1024</dim>
					<dim>13</dim>
					<dim>11</dim>
				</port>
			</output>
		</layer>
		<layer id="314" name="Constant_5312" type="Const" version="opset1">
			<data element_type="f32" shape="1, 1, 1, 1" offset="2632" size="4" />
			<output>
				<port id="0" precision="FP32">
					<dim>1</dim>
					<dim>1</dim>
					<dim>1</dim>
					<dim>1</dim>
				</port>
			</output>
		</layer>
		<layer id="315" name="Constant_5313" type="Const" version="opset1">
			<data element_type="f32" shape="1, 1, 1, 1" offset="1157289" size="4" />
			<output>
				<port id="0" precision="FP32">
					<dim>1</dim>
					<dim>1</dim>
					<dim>1</dim>
					<dim>1</dim>
				</port>
			</output>
		</layer>
		<layer id="316" name="Constant_5314" type="Const" version="opset1">
			<data element_type="f32" shape="1, 1, 1, 1" offset="2632" size="4" />
			<output>
				<port id="0" precision="FP32">
					<dim>1</dim>
					<dim>1</dim>
					<dim>1</dim>
					<dim>1</dim>
				</port>
			</output>
		</layer>
		<layer id="317" name="Constant_5315" type="Const" version="opset1">
			<data element_type="f32" shape="1, 1, 1, 1" offset="1157289" size="4" />
			<output>
				<port id="0" precision="FP32">
					<dim>1</dim>
					<dim>1</dim>
					<dim>1</dim>
					<dim>1</dim>
				</port>
			</output>
		</layer>
		<layer id="318" name="445" type="FakeQuantize" version="opset1">
			<data levels="256" auto_broadcast="numpy" />
			<input>
				<port id="0" precision="FP32">
					<dim>1</dim>
					<dim>1024</dim>
					<dim>13</dim>
					<dim>11</dim>
				</port>
				<port id="1" precision="FP32">
					<dim>1</dim>
					<dim>1</dim>
					<dim>1</dim>
					<dim>1</dim>
				</port>
				<port id="2" precision="FP32">
					<dim>1</dim>
					<dim>1</dim>
					<dim>1</dim>
					<dim>1</dim>
				</port>
				<port id="3" precision="FP32">
					<dim>1</dim>
					<dim>1</dim>
					<dim>1</dim>
					<dim>1</dim>
				</port>
				<port id="4" precision="FP32">
					<dim>1</dim>
					<dim>1</dim>
					<dim>1</dim>
					<dim>1</dim>
				</port>
			</input>
			<output>
				<port id="5" precision="FP32" names="445">
					<dim>1</dim>
					<dim>1024</dim>
					<dim>13</dim>
					<dim>11</dim>
				</port>
			</output>
		</layer>
		<layer id="319" name="Constant_5789" type="Const" version="opset1">
			<data element_type="i8" shape="1024, 1024, 1, 1" offset="1157293" size="1048576" />
			<output>
				<port id="0" precision="I8">
					<dim>1024</dim>
					<dim>1024</dim>
					<dim>1</dim>
					<dim>1</dim>
				</port>
			</output>
		</layer>
		<layer id="320" name="Convert_5790" type="Convert" version="opset1">
			<data destination_type="f32" />
			<input>
				<port id="0" precision="I8">
					<dim>1024</dim>
					<dim>1024</dim>
					<dim>1</dim>
					<dim>1</dim>
				</port>
			</input>
			<output>
				<port id="1" precision="FP32">
					<dim>1024</dim>
					<dim>1024</dim>
					<dim>1</dim>
					<dim>1</dim>
				</port>
			</output>
		</layer>
		<layer id="321" name="Constant_5791" type="Const" version="opset1">
			<data element_type="f32" shape="1024, 1, 1, 1" offset="2205869" size="4096" />
			<output>
				<port id="0" precision="FP32">
					<dim>1024</dim>
					<dim>1</dim>
					<dim>1</dim>
					<dim>1</dim>
				</port>
			</output>
		</layer>
		<layer id="322" name="Multiply_5013" type="Multiply" version="opset1">
			<data auto_broadcast="numpy" />
			<input>
				<port id="0" precision="FP32">
					<dim>1024</dim>
					<dim>1024</dim>
					<dim>1</dim>
					<dim>1</dim>
				</port>
				<port id="1" precision="FP32">
					<dim>1024</dim>
					<dim>1</dim>
					<dim>1</dim>
					<dim>1</dim>
				</port>
			</input>
			<output>
				<port id="2" precision="FP32">
					<dim>1024</dim>
					<dim>1024</dim>
					<dim>1</dim>
					<dim>1</dim>
				</port>
			</output>
		</layer>
		<layer id="323" name="Multiply_4938" type="Convolution" version="opset1">
			<data strides="1, 1" dilations="1, 1" pads_begin="1, 1" pads_end="1, 1" auto_pad="explicit" />
			<input>
				<port id="0" precision="FP32">
					<dim>1</dim>
					<dim>1024</dim>
					<dim>13</dim>
					<dim>11</dim>
				</port>
				<port id="1" precision="FP32">
					<dim>1024</dim>
					<dim>1024</dim>
					<dim>1</dim>
					<dim>1</dim>
				</port>
			</input>
			<output>
				<port id="2" precision="FP32">
					<dim>1</dim>
					<dim>1024</dim>
					<dim>15</dim>
					<dim>13</dim>
				</port>
			</output>
		</layer>
		<layer id="324" name="Constant_4943" type="Const" version="opset1">
			<data element_type="f32" shape="1, 1024, 1, 1" offset="2209965" size="4096" />
			<output>
				<port id="0" precision="FP32">
					<dim>1</dim>
					<dim>1024</dim>
					<dim>1</dim>
					<dim>1</dim>
				</port>
			</output>
		</layer>
		<layer id="325" name="450" type="Add" version="opset1">
			<data auto_broadcast="numpy" />
			<input>
				<port id="0" precision="FP32">
					<dim>1</dim>
					<dim>1024</dim>
					<dim>15</dim>
					<dim>13</dim>
				</port>
				<port id="1" precision="FP32">
					<dim>1</dim>
					<dim>1024</dim>
					<dim>1</dim>
					<dim>1</dim>
				</port>
			</input>
			<output>
				<port id="2" precision="FP32" names="450">
					<dim>1</dim>
					<dim>1024</dim>
					<dim>15</dim>
					<dim>13</dim>
				</port>
			</output>
		</layer>
		<layer id="326" name="Constant_5318" type="Const" version="opset1">
			<data element_type="f32" shape="1, 1, 1, 1" offset="2632" size="4" />
			<output>
				<port id="0" precision="FP32">
					<dim>1</dim>
					<dim>1</dim>
					<dim>1</dim>
					<dim>1</dim>
				</port>
			</output>
		</layer>
		<layer id="327" name="Constant_5319" type="Const" version="opset1">
			<data element_type="f32" shape="1, 1, 1, 1" offset="2214061" size="4" />
			<output>
				<port id="0" precision="FP32">
					<dim>1</dim>
					<dim>1</dim>
					<dim>1</dim>
					<dim>1</dim>
				</port>
			</output>
		</layer>
		<layer id="328" name="Constant_5320" type="Const" version="opset1">
			<data element_type="f32" shape="1, 1, 1, 1" offset="2632" size="4" />
			<output>
				<port id="0" precision="FP32">
					<dim>1</dim>
					<dim>1</dim>
					<dim>1</dim>
					<dim>1</dim>
				</port>
			</output>
		</layer>
		<layer id="329" name="Constant_5321" type="Const" version="opset1">
			<data element_type="f32" shape="1, 1, 1, 1" offset="2214061" size="4" />
			<output>
				<port id="0" precision="FP32">
					<dim>1</dim>
					<dim>1</dim>
					<dim>1</dim>
					<dim>1</dim>
				</port>
			</output>
		</layer>
		<layer id="330" name="454" type="FakeQuantize" version="opset1">
			<data levels="256" auto_broadcast="numpy" />
			<input>
				<port id="0" precision="FP32">
					<dim>1</dim>
					<dim>1024</dim>
					<dim>15</dim>
					<dim>13</dim>
				</port>
				<port id="1" precision="FP32">
					<dim>1</dim>
					<dim>1</dim>
					<dim>1</dim>
					<dim>1</dim>
				</port>
				<port id="2" precision="FP32">
					<dim>1</dim>
					<dim>1</dim>
					<dim>1</dim>
					<dim>1</dim>
				</port>
				<port id="3" precision="FP32">
					<dim>1</dim>
					<dim>1</dim>
					<dim>1</dim>
					<dim>1</dim>
				</port>
				<port id="4" precision="FP32">
					<dim>1</dim>
					<dim>1</dim>
					<dim>1</dim>
					<dim>1</dim>
				</port>
			</input>
			<output>
				<port id="5" precision="FP32" names="454">
					<dim>1</dim>
					<dim>1024</dim>
					<dim>15</dim>
					<dim>13</dim>
				</port>
			</output>
		</layer>
		<layer id="331" name="455" type="MaxPool" version="opset8">
			<data strides="2, 2" dilations="1, 1" pads_begin="0, 0" pads_end="0, 0" kernel="2, 2" rounding_type="floor" auto_pad="explicit" index_element_type="i64" axis="0" />
			<input>
				<port id="0" precision="FP32">
					<dim>1</dim>
					<dim>1024</dim>
					<dim>15</dim>
					<dim>13</dim>
				</port>
			</input>
			<output>
				<port id="1" precision="FP32" names="455">
					<dim>1</dim>
					<dim>1024</dim>
					<dim>7</dim>
					<dim>6</dim>
				</port>
				<port id="2" precision="I64">
					<dim>1</dim>
					<dim>1024</dim>
					<dim>7</dim>
					<dim>6</dim>
				</port>
			</output>
		</layer>
		<layer id="332" name="Constant_5793" type="Const" version="opset1">
			<data element_type="i8" shape="512, 1024, 1, 1" offset="2214065" size="524288" />
			<output>
				<port id="0" precision="I8">
					<dim>512</dim>
					<dim>1024</dim>
					<dim>1</dim>
					<dim>1</dim>
				</port>
			</output>
		</layer>
		<layer id="333" name="Convert_5794" type="Convert" version="opset1">
			<data destination_type="f32" />
			<input>
				<port id="0" precision="I8">
					<dim>512</dim>
					<dim>1024</dim>
					<dim>1</dim>
					<dim>1</dim>
				</port>
			</input>
			<output>
				<port id="1" precision="FP32">
					<dim>512</dim>
					<dim>1024</dim>
					<dim>1</dim>
					<dim>1</dim>
				</port>
			</output>
		</layer>
		<layer id="334" name="Constant_5795" type="Const" version="opset1">
			<data element_type="f32" shape="1, 1, 1, 1" offset="2738353" size="4" />
			<output>
				<port id="0" precision="FP32">
					<dim>1</dim>
					<dim>1</dim>
					<dim>1</dim>
					<dim>1</dim>
				</port>
			</output>
		</layer>
		<layer id="335" name="458" type="Multiply" version="opset1">
			<data auto_broadcast="numpy" />
			<input>
				<port id="0" precision="FP32">
					<dim>512</dim>
					<dim>1024</dim>
					<dim>1</dim>
					<dim>1</dim>
				</port>
				<port id="1" precision="FP32">
					<dim>1</dim>
					<dim>1</dim>
					<dim>1</dim>
					<dim>1</dim>
				</port>
			</input>
			<output>
				<port id="2" precision="FP32" names="458">
					<dim>512</dim>
					<dim>1024</dim>
					<dim>1</dim>
					<dim>1</dim>
				</port>
			</output>
		</layer>
		<layer id="336" name="459/WithoutBiases" type="Convolution" version="opset1">
			<data strides="1, 1" dilations="1, 1" pads_begin="0, 0" pads_end="0, 0" auto_pad="explicit" />
			<input>
				<port id="0" precision="FP32">
					<dim>1</dim>
					<dim>1024</dim>
					<dim>7</dim>
					<dim>6</dim>
				</port>
				<port id="1" precision="FP32">
					<dim>512</dim>
					<dim>1024</dim>
					<dim>1</dim>
					<dim>1</dim>
				</port>
			</input>
			<output>
				<port id="2" precision="FP32">
					<dim>1</dim>
					<dim>512</dim>
					<dim>7</dim>
					<dim>6</dim>
				</port>
			</output>
		</layer>
		<layer id="337" name="Reshape_869" type="Const" version="opset1">
			<data element_type="f32" shape="1, 512, 1, 1" offset="2738357" size="2048" />
			<output>
				<port id="0" precision="FP32">
					<dim>1</dim>
					<dim>512</dim>
					<dim>1</dim>
					<dim>1</dim>
				</port>
			</output>
		</layer>
		<layer id="338" name="459" type="Add" version="opset1">
			<data auto_broadcast="numpy" />
			<input>
				<port id="0" precision="FP32">
					<dim>1</dim>
					<dim>512</dim>
					<dim>7</dim>
					<dim>6</dim>
				</port>
				<port id="1" precision="FP32">
					<dim>1</dim>
					<dim>512</dim>
					<dim>1</dim>
					<dim>1</dim>
				</port>
			</input>
			<output>
				<port id="2" precision="FP32" names="459">
					<dim>1</dim>
					<dim>512</dim>
					<dim>7</dim>
					<dim>6</dim>
				</port>
			</output>
		</layer>
		<layer id="339" name="Constant_5326" type="Const" version="opset1">
			<data element_type="f32" shape="1, 1, 1, 1" offset="2740405" size="4" />
			<output>
				<port id="0" precision="FP32">
					<dim>1</dim>
					<dim>1</dim>
					<dim>1</dim>
					<dim>1</dim>
				</port>
			</output>
		</layer>
		<layer id="340" name="Constant_5327" type="Const" version="opset1">
			<data element_type="f32" shape="1, 1, 1, 1" offset="2740409" size="4" />
			<output>
				<port id="0" precision="FP32">
					<dim>1</dim>
					<dim>1</dim>
					<dim>1</dim>
					<dim>1</dim>
				</port>
			</output>
		</layer>
		<layer id="341" name="Constant_5328" type="Const" version="opset1">
			<data element_type="f32" shape="1, 1, 1, 1" offset="2740405" size="4" />
			<output>
				<port id="0" precision="FP32">
					<dim>1</dim>
					<dim>1</dim>
					<dim>1</dim>
					<dim>1</dim>
				</port>
			</output>
		</layer>
		<layer id="342" name="Constant_5329" type="Const" version="opset1">
			<data element_type="f32" shape="1, 1, 1, 1" offset="2740409" size="4" />
			<output>
				<port id="0" precision="FP32">
					<dim>1</dim>
					<dim>1</dim>
					<dim>1</dim>
					<dim>1</dim>
				</port>
			</output>
		</layer>
		<layer id="343" name="462" type="FakeQuantize" version="opset1">
			<data levels="256" auto_broadcast="numpy" />
			<input>
				<port id="0" precision="FP32">
					<dim>1</dim>
					<dim>512</dim>
					<dim>7</dim>
					<dim>6</dim>
				</port>
				<port id="1" precision="FP32">
					<dim>1</dim>
					<dim>1</dim>
					<dim>1</dim>
					<dim>1</dim>
				</port>
				<port id="2" precision="FP32">
					<dim>1</dim>
					<dim>1</dim>
					<dim>1</dim>
					<dim>1</dim>
				</port>
				<port id="3" precision="FP32">
					<dim>1</dim>
					<dim>1</dim>
					<dim>1</dim>
					<dim>1</dim>
				</port>
				<port id="4" precision="FP32">
					<dim>1</dim>
					<dim>1</dim>
					<dim>1</dim>
					<dim>1</dim>
				</port>
			</input>
			<output>
				<port id="5" precision="FP32" names="462">
					<dim>1</dim>
					<dim>512</dim>
					<dim>7</dim>
					<dim>6</dim>
				</port>
			</output>
		</layer>
		<layer id="344" name="Range_882" type="Const" version="opset1">
			<data element_type="i64" shape="2" offset="2740413" size="16" />
			<output>
				<port id="0" precision="I64">
					<dim>2</dim>
				</port>
			</output>
		</layer>
		<layer id="345" name="463" type="ReduceMean" version="opset1">
			<data keep_dims="true" />
			<input>
				<port id="0" precision="FP32">
					<dim>1</dim>
					<dim>512</dim>
					<dim>7</dim>
					<dim>6</dim>
				</port>
				<port id="1" precision="I64">
					<dim>2</dim>
				</port>
			</input>
			<output>
				<port id="2" precision="FP32" names="463">
					<dim>1</dim>
					<dim>512</dim>
					<dim>1</dim>
					<dim>1</dim>
				</port>
			</output>
		</layer>
		<layer id="346" name="Constant_5330" type="Const" version="opset1">
			<data element_type="f32" shape="1, 1, 1, 1" offset="2740429" size="4" />
			<output>
				<port id="0" precision="FP32">
					<dim>1</dim>
					<dim>1</dim>
					<dim>1</dim>
					<dim>1</dim>
				</port>
			</output>
		</layer>
		<layer id="347" name="Constant_5331" type="Const" version="opset1">
			<data element_type="f32" shape="1, 1, 1, 1" offset="2740433" size="4" />
			<output>
				<port id="0" precision="FP32">
					<dim>1</dim>
					<dim>1</dim>
					<dim>1</dim>
					<dim>1</dim>
				</port>
			</output>
		</layer>
		<layer id="348" name="Constant_5332" type="Const" version="opset1">
			<data element_type="f32" shape="1, 1, 1, 1" offset="2740429" size="4" />
			<output>
				<port id="0" precision="FP32">
					<dim>1</dim>
					<dim>1</dim>
					<dim>1</dim>
					<dim>1</dim>
				</port>
			</output>
		</layer>
		<layer id="349" name="Constant_5333" type="Const" version="opset1">
			<data element_type="f32" shape="1, 1, 1, 1" offset="2740433" size="4" />
			<output>
				<port id="0" precision="FP32">
					<dim>1</dim>
					<dim>1</dim>
					<dim>1</dim>
					<dim>1</dim>
				</port>
			</output>
		</layer>
		<layer id="350" name="466" type="FakeQuantize" version="opset1">
			<data levels="256" auto_broadcast="numpy" />
			<input>
				<port id="0" precision="FP32">
					<dim>1</dim>
					<dim>512</dim>
					<dim>1</dim>
					<dim>1</dim>
				</port>
				<port id="1" precision="FP32">
					<dim>1</dim>
					<dim>1</dim>
					<dim>1</dim>
					<dim>1</dim>
				</port>
				<port id="2" precision="FP32">
					<dim>1</dim>
					<dim>1</dim>
					<dim>1</dim>
					<dim>1</dim>
				</port>
				<port id="3" precision="FP32">
					<dim>1</dim>
					<dim>1</dim>
					<dim>1</dim>
					<dim>1</dim>
				</port>
				<port id="4" precision="FP32">
					<dim>1</dim>
					<dim>1</dim>
					<dim>1</dim>
					<dim>1</dim>
				</port>
			</input>
			<output>
				<port id="5" precision="FP32" names="466">
					<dim>1</dim>
					<dim>512</dim>
					<dim>1</dim>
					<dim>1</dim>
				</port>
			</output>
		</layer>
		<layer id="351" name="468" type="ShapeOf" version="opset3">
			<data output_type="i64" />
			<input>
				<port id="0" precision="FP32">
					<dim>1</dim>
					<dim>512</dim>
					<dim>1</dim>
					<dim>1</dim>
				</port>
			</input>
			<output>
				<port id="1" precision="I64" names="468">
					<dim>4</dim>
				</port>
			</output>
		</layer>
		<layer id="352" name="Constant_3524" type="Const" version="opset1">
			<data element_type="i64" shape="1" offset="46109" size="8" />
			<output>
				<port id="0" precision="I64">
					<dim>1</dim>
				</port>
			</output>
		</layer>
		<layer id="353" name="Constant_893" type="Const" version="opset1">
			<data element_type="i64" shape="" offset="46109" size="8" />
			<output>
				<port id="0" precision="I64" />
			</output>
		</layer>
		<layer id="354" name="469" type="Gather" version="opset8">
			<data batch_dims="0" />
			<input>
				<port id="0" precision="I64">
					<dim>4</dim>
				</port>
				<port id="1" precision="I64">
					<dim>1</dim>
				</port>
				<port id="2" precision="I64" />
			</input>
			<output>
				<port id="3" precision="I64" names="469,471">
					<dim>1</dim>
				</port>
			</output>
		</layer>
		<layer id="355" name="472" type="Const" version="opset1">
			<data element_type="i64" shape="1" offset="2740437" size="8" />
			<output>
				<port id="0" precision="I64" names="472">
					<dim>1</dim>
				</port>
			</output>
		</layer>
		<layer id="356" name="473" type="Concat" version="opset1">
			<data axis="0" />
			<input>
				<port id="0" precision="I64">
					<dim>1</dim>
				</port>
				<port id="1" precision="I64">
					<dim>1</dim>
				</port>
			</input>
			<output>
				<port id="2" precision="I64" names="473">
					<dim>2</dim>
				</port>
			</output>
		</layer>
		<layer id="357" name="474" type="Reshape" version="opset1">
			<data special_zero="true" />
			<input>
				<port id="0" precision="FP32">
					<dim>1</dim>
					<dim>512</dim>
					<dim>1</dim>
					<dim>1</dim>
				</port>
				<port id="1" precision="I64">
					<dim>2</dim>
				</port>
			</input>
			<output>
				<port id="2" precision="FP32" names="474">
					<dim>1</dim>
					<dim>512</dim>
				</port>
			</output>
		</layer>
		<layer id="358" name="Constant_5334" type="Const" version="opset1">
			<data element_type="f32" shape="1, 1" offset="2632" size="4" />
			<output>
				<port id="0" precision="FP32">
					<dim>1</dim>
					<dim>1</dim>
				</port>
			</output>
		</layer>
		<layer id="359" name="Constant_5335" type="Const" version="opset1">
			<data element_type="f32" shape="1, 1" offset="2740445" size="4" />
			<output>
				<port id="0" precision="FP32">
					<dim>1</dim>
					<dim>1</dim>
				</port>
			</output>
		</layer>
		<layer id="360" name="Constant_5336" type="Const" version="opset1">
			<data element_type="f32" shape="1, 1" offset="2632" size="4" />
			<output>
				<port id="0" precision="FP32">
					<dim>1</dim>
					<dim>1</dim>
				</port>
			</output>
		</layer>
		<layer id="361" name="Constant_5337" type="Const" version="opset1">
			<data element_type="f32" shape="1, 1" offset="2740445" size="4" />
			<output>
				<port id="0" precision="FP32">
					<dim>1</dim>
					<dim>1</dim>
				</port>
			</output>
		</layer>
		<layer id="362" name="478" type="FakeQuantize" version="opset1">
			<data levels="256" auto_broadcast="numpy" />
			<input>
				<port id="0" precision="FP32">
					<dim>1</dim>
					<dim>512</dim>
				</port>
				<port id="1" precision="FP32">
					<dim>1</dim>
					<dim>1</dim>
				</port>
				<port id="2" precision="FP32">
					<dim>1</dim>
					<dim>1</dim>
				</port>
				<port id="3" precision="FP32">
					<dim>1</dim>
					<dim>1</dim>
				</port>
				<port id="4" precision="FP32">
					<dim>1</dim>
					<dim>1</dim>
				</port>
			</input>
			<output>
				<port id="5" precision="FP32" names="478">
					<dim>1</dim>
					<dim>512</dim>
				</port>
			</output>
		</layer>
		<layer id="363" name="Constant_5797" type="Const" version="opset1">
			<data element_type="i8" shape="53, 512" offset="2740449" size="27136" />
			<output>
				<port id="0" precision="I8">
					<dim>53</dim>
					<dim>512</dim>
				</port>
			</output>
		</layer>
		<layer id="364" name="Convert_5798" type="Convert" version="opset1">
			<data destination_type="f32" />
			<input>
				<port id="0" precision="I8">
					<dim>53</dim>
					<dim>512</dim>
				</port>
			</input>
			<output>
				<port id="1" precision="FP32">
					<dim>53</dim>
					<dim>512</dim>
				</port>
			</output>
		</layer>
		<layer id="365" name="Constant_5799" type="Const" version="opset1">
			<data element_type="f32" shape="1, 1" offset="2767585" size="4" />
			<output>
				<port id="0" precision="FP32">
					<dim>1</dim>
					<dim>1</dim>
				</port>
			</output>
		</layer>
		<layer id="366" name="481" type="Multiply" version="opset1">
			<data auto_broadcast="numpy" />
			<input>
				<port id="0" precision="FP32">
					<dim>53</dim>
					<dim>512</dim>
				</port>
				<port id="1" precision="FP32">
					<dim>1</dim>
					<dim>1</dim>
				</port>
			</input>
			<output>
				<port id="2" precision="FP32" names="481">
					<dim>53</dim>
					<dim>512</dim>
				</port>
			</output>
		</layer>
		<layer id="367" name="482/WithoutBiases" type="MatMul" version="opset1">
			<data transpose_a="false" transpose_b="true" />
			<input>
				<port id="0" precision="FP32">
					<dim>1</dim>
					<dim>512</dim>
				</port>
				<port id="1" precision="FP32">
					<dim>53</dim>
					<dim>512</dim>
				</port>
			</input>
			<output>
				<port id="2" precision="FP32">
					<dim>1</dim>
					<dim>53</dim>
				</port>
			</output>
		</layer>
		<layer id="368" name="Constant_5342" type="Const" version="opset1">
			<data element_type="f32" shape="1, 53" offset="2767589" size="212" />
			<output>
				<port id="0" precision="FP32">
					<dim>1</dim>
					<dim>53</dim>
				</port>
			</output>
		</layer>
		<layer id="369" name="482" type="Add" version="opset1">
			<data auto_broadcast="numpy" />
			<input>
				<port id="0" precision="FP32">
					<dim>1</dim>
					<dim>53</dim>
				</port>
				<port id="1" precision="FP32">
					<dim>1</dim>
					<dim>53</dim>
				</port>
			</input>
			<output>
				<port id="2" precision="FP32" names="482">
					<dim>1</dim>
					<dim>53</dim>
				</port>
			</output>
		</layer>
		<layer id="370" name="Constant_5343" type="Const" version="opset1">
			<data element_type="f32" shape="1, 1" offset="2767801" size="4" />
			<output>
				<port id="0" precision="FP32">
					<dim>1</dim>
					<dim>1</dim>
				</port>
			</output>
		</layer>
		<layer id="371" name="Constant_5344" type="Const" version="opset1">
			<data element_type="f32" shape="1, 1" offset="2767805" size="4" />
			<output>
				<port id="0" precision="FP32">
					<dim>1</dim>
					<dim>1</dim>
				</port>
			</output>
		</layer>
		<layer id="372" name="Constant_5345" type="Const" version="opset1">
			<data element_type="f32" shape="1, 1" offset="2767801" size="4" />
			<output>
				<port id="0" precision="FP32">
					<dim>1</dim>
					<dim>1</dim>
				</port>
			</output>
		</layer>
		<layer id="373" name="Constant_5346" type="Const" version="opset1">
			<data element_type="f32" shape="1, 1" offset="2767805" size="4" />
			<output>
				<port id="0" precision="FP32">
					<dim>1</dim>
					<dim>1</dim>
				</port>
			</output>
		</layer>
		<layer id="374" name="485" type="FakeQuantize" version="opset1">
			<data levels="256" auto_broadcast="numpy" />
			<input>
				<port id="0" precision="FP32">
					<dim>1</dim>
					<dim>53</dim>
				</port>
				<port id="1" precision="FP32">
					<dim>1</dim>
					<dim>1</dim>
				</port>
				<port id="2" precision="FP32">
					<dim>1</dim>
					<dim>1</dim>
				</port>
				<port id="3" precision="FP32">
					<dim>1</dim>
					<dim>1</dim>
				</port>
				<port id="4" precision="FP32">
					<dim>1</dim>
					<dim>1</dim>
				</port>
			</input>
			<output>
				<port id="5" precision="FP32" names="485">
					<dim>1</dim>
					<dim>53</dim>
				</port>
			</output>
		</layer>
		<layer id="375" name="Constant_919" type="Const" version="opset1">
			<data element_type="i64" shape="2" offset="2767809" size="16" />
			<output>
				<port id="0" precision="I64">
					<dim>2</dim>
				</port>
			</output>
		</layer>
		<layer id="376" name="Reshape_920" type="Reshape" version="opset1">
			<data special_zero="true" />
			<input>
				<port id="0" precision="FP32">
					<dim>1</dim>
					<dim>53</dim>
				</port>
				<port id="1" precision="I64">
					<dim>2</dim>
				</port>
			</input>
			<output>
				<port id="2" precision="FP32">
					<dim>1</dim>
					<dim>53</dim>
				</port>
			</output>
		</layer>
		<layer id="377" name="Softmax_921" type="SoftMax" version="opset8">
			<data axis="1" />
			<input>
				<port id="0" precision="FP32">
					<dim>1</dim>
					<dim>53</dim>
				</port>
			</input>
			<output>
				<port id="1" precision="FP32">
					<dim>1</dim>
					<dim>53</dim>
				</port>
			</output>
		</layer>
		<layer id="378" name="ShapeOf_922" type="ShapeOf" version="opset3">
			<data output_type="i64" />
			<input>
				<port id="0" precision="FP32">
					<dim>1</dim>
					<dim>53</dim>
				</port>
			</input>
			<output>
				<port id="1" precision="I64">
					<dim>2</dim>
				</port>
			</output>
		</layer>
		<layer id="379" name="486" type="Reshape" version="opset1">
			<data special_zero="false" />
			<input>
				<port id="0" precision="FP32">
					<dim>1</dim>
					<dim>53</dim>
				</port>
				<port id="1" precision="I64">
					<dim>2</dim>
				</port>
			</input>
			<output>
				<port id="2" precision="FP32" names="486">
					<dim>1</dim>
					<dim>53</dim>
				</port>
			</output>
		</layer>
		<layer id="380" name="486/sink_port_0" type="Result" version="opset1">
			<input>
				<port id="0" precision="FP32">
					<dim>1</dim>
					<dim>53</dim>
				</port>
			</input>
		</layer>
	</layers>
	<edges>
		<edge from-layer="0" from-port="0" to-layer="5" to-port="0" />
		<edge from-layer="1" from-port="0" to-layer="5" to-port="1" />
		<edge from-layer="2" from-port="0" to-layer="5" to-port="2" />
		<edge from-layer="3" from-port="0" to-layer="5" to-port="3" />
		<edge from-layer="4" from-port="0" to-layer="5" to-port="4" />
		<edge from-layer="5" from-port="5" to-layer="10" to-port="0" />
		<edge from-layer="6" from-port="0" to-layer="7" to-port="0" />
		<edge from-layer="7" from-port="1" to-layer="9" to-port="0" />
		<edge from-layer="8" from-port="0" to-layer="9" to-port="1" />
		<edge from-layer="9" from-port="2" to-layer="10" to-port="1" />
		<edge from-layer="10" from-port="2" to-layer="12" to-port="0" />
		<edge from-layer="11" from-port="0" to-layer="12" to-port="1" />
		<edge from-layer="12" from-port="2" to-layer="17" to-port="0" />
		<edge from-layer="13" from-port="0" to-layer="17" to-port="1" />
		<edge from-layer="14" from-port="0" to-layer="17" to-port="2" />
		<edge from-layer="15" from-port="0" to-layer="17" to-port="3" />
		<edge from-layer="16" from-port="0" to-layer="17" to-port="4" />
		<edge from-layer="17" from-port="5" to-layer="22" to-port="0" />
		<edge from-layer="18" from-port="0" to-layer="19" to-port="0" />
		<edge from-layer="19" from-port="1" to-layer="21" to-port="0" />
		<edge from-layer="20" from-port="0" to-layer="21" to-port="1" />
		<edge from-layer="21" from-port="2" to-layer="22" to-port="1" />
		<edge from-layer="22" from-port="2" to-layer="24" to-port="0" />
		<edge from-layer="23" from-port="0" to-layer="24" to-port="1" />
		<edge from-layer="24" from-port="2" to-layer="29" to-port="0" />
		<edge from-layer="25" from-port="0" to-layer="29" to-port="1" />
		<edge from-layer="26" from-port="0" to-layer="29" to-port="2" />
		<edge from-layer="27" from-port="0" to-layer="29" to-port="3" />
		<edge from-layer="28" from-port="0" to-layer="29" to-port="4" />
		<edge from-layer="29" from-port="5" to-layer="30" to-port="0" />
		<edge from-layer="30" from-port="1" to-layer="32" to-port="0" />
		<edge from-layer="31" from-port="0" to-layer="32" to-port="1" />
		<edge from-layer="32" from-port="2" to-layer="37" to-port="0" />
		<edge from-layer="33" from-port="0" to-layer="34" to-port="0" />
		<edge from-layer="34" from-port="1" to-layer="36" to-port="0" />
		<edge from-layer="35" from-port="0" to-layer="36" to-port="1" />
		<edge from-layer="36" from-port="2" to-layer="37" to-port="1" />
		<edge from-layer="37" from-port="2" to-layer="42" to-port="0" />
		<edge from-layer="38" from-port="0" to-layer="42" to-port="1" />
		<edge from-layer="39" from-port="0" to-layer="42" to-port="2" />
		<edge from-layer="40" from-port="0" to-layer="42" to-port="3" />
		<edge from-layer="41" from-port="0" to-layer="42" to-port="4" />
		<edge from-layer="42" from-port="5" to-layer="47" to-port="0" />
		<edge from-layer="43" from-port="0" to-layer="44" to-port="0" />
		<edge from-layer="44" from-port="1" to-layer="46" to-port="0" />
		<edge from-layer="45" from-port="0" to-layer="46" to-port="1" />
		<edge from-layer="46" from-port="2" to-layer="47" to-port="1" />
		<edge from-layer="47" from-port="2" to-layer="49" to-port="0" />
		<edge from-layer="48" from-port="0" to-layer="49" to-port="1" />
		<edge from-layer="49" from-port="2" to-layer="54" to-port="0" />
		<edge from-layer="50" from-port="0" to-layer="54" to-port="1" />
		<edge from-layer="51" from-port="0" to-layer="54" to-port="2" />
		<edge from-layer="52" from-port="0" to-layer="54" to-port="3" />
		<edge from-layer="53" from-port="0" to-layer="54" to-port="4" />
		<edge from-layer="54" from-port="5" to-layer="55" to-port="0" />
		<edge from-layer="55" from-port="1" to-layer="70" to-port="0" />
		<edge from-layer="56" from-port="0" to-layer="57" to-port="0" />
		<edge from-layer="57" from-port="1" to-layer="59" to-port="0" />
		<edge from-layer="58" from-port="0" to-layer="59" to-port="1" />
		<edge from-layer="59" from-port="2" to-layer="61" to-port="0" />
		<edge from-layer="59" from-port="2" to-layer="63" to-port="0" />
		<edge from-layer="60" from-port="0" to-layer="61" to-port="1" />
		<edge from-layer="61" from-port="2" to-layer="69" to-port="0" />
		<edge from-layer="62" from-port="0" to-layer="67" to-port="1" />
		<edge from-layer="62" from-port="0" to-layer="68" to-port="0" />
		<edge from-layer="63" from-port="1" to-layer="66" to-port="0" />
		<edge from-layer="64" from-port="0" to-layer="66" to-port="1" />
		<edge from-layer="65" from-port="0" to-layer="66" to-port="2" />
		<edge from-layer="66" from-port="3" to-layer="67" to-port="0" />
		<edge from-layer="66" from-port="4" to-layer="68" to-port="2" />
		<edge from-layer="67" from-port="2" to-layer="68" to-port="1" />
		<edge from-layer="68" from-port="3" to-layer="69" to-port="1" />
		<edge from-layer="69" from-port="2" to-layer="70" to-port="1" />
		<edge from-layer="70" from-port="2" to-layer="72" to-port="0" />
		<edge from-layer="71" from-port="0" to-layer="72" to-port="1" />
		<edge from-layer="72" from-port="2" to-layer="77" to-port="0" />
		<edge from-layer="73" from-port="0" to-layer="77" to-port="1" />
		<edge from-layer="74" from-port="0" to-layer="77" to-port="2" />
		<edge from-layer="75" from-port="0" to-layer="77" to-port="3" />
		<edge from-layer="76" from-port="0" to-layer="77" to-port="4" />
		<edge from-layer="77" from-port="5" to-layer="82" to-port="0" />
		<edge from-layer="78" from-port="0" to-layer="79" to-port="0" />
		<edge from-layer="79" from-port="1" to-layer="81" to-port="0" />
		<edge from-layer="80" from-port="0" to-layer="81" to-port="1" />
		<edge from-layer="81" from-port="2" to-layer="82" to-port="1" />
		<edge from-layer="82" from-port="2" to-layer="84" to-port="0" />
		<edge from-layer="83" from-port="0" to-layer="84" to-port="1" />
		<edge from-layer="84" from-port="2" to-layer="89" to-port="0" />
		<edge from-layer="85" from-port="0" to-layer="89" to-port="1" />
		<edge from-layer="86" from-port="0" to-layer="89" to-port="2" />
		<edge from-layer="87" from-port="0" to-layer="89" to-port="3" />
		<edge from-layer="88" from-port="0" to-layer="89" to-port="4" />
		<edge from-layer="89" from-port="5" to-layer="104" to-port="0" />
		<edge from-layer="90" from-port="0" to-layer="91" to-port="0" />
		<edge from-layer="91" from-port="1" to-layer="93" to-port="0" />
		<edge from-layer="92" from-port="0" to-layer="93" to-port="1" />
		<edge from-layer="93" from-port="2" to-layer="95" to-port="0" />
		<edge from-layer="93" from-port="2" to-layer="97" to-port="0" />
		<edge from-layer="94" from-port="0" to-layer="95" to-port="1" />
		<edge from-layer="95" from-port="2" to-layer="103" to-port="0" />
		<edge from-layer="96" from-port="0" to-layer="101" to-port="1" />
		<edge from-layer="96" from-port="0" to-layer="102" to-port="0" />
		<edge from-layer="97" from-port="1" to-layer="100" to-port="0" />
		<edge from-layer="98" from-port="0" to-layer="100" to-port="1" />
		<edge from-layer="99" from-port="0" to-layer="100" to-port="2" />
		<edge from-layer="100" from-port="3" to-layer="101" to-port="0" />
		<edge from-layer="100" from-port="4" to-layer="102" to-port="2" />
		<edge from-layer="101" from-port="2" to-layer="102" to-port="1" />
		<edge from-layer="102" from-port="3" to-layer="103" to-port="1" />
		<edge from-layer="103" from-port="2" to-layer="104" to-port="1" />
		<edge from-layer="104" from-port="2" to-layer="106" to-port="0" />
		<edge from-layer="105" from-port="0" to-layer="106" to-port="1" />
		<edge from-layer="106" from-port="2" to-layer="111" to-port="0" />
		<edge from-layer="107" from-port="0" to-layer="111" to-port="1" />
		<edge from-layer="108" from-port="0" to-layer="111" to-port="2" />
		<edge from-layer="109" from-port="0" to-layer="111" to-port="3" />
		<edge from-layer="110" from-port="0" to-layer="111" to-port="4" />
		<edge from-layer="111" from-port="5" to-layer="116" to-port="0" />
		<edge from-layer="112" from-port="0" to-layer="113" to-port="0" />
		<edge from-layer="113" from-port="1" to-layer="115" to-port="0" />
		<edge from-layer="114" from-port="0" to-layer="115" to-port="1" />
		<edge from-layer="115" from-port="2" to-layer="116" to-port="1" />
		<edge from-layer="116" from-port="2" to-layer="118" to-port="0" />
		<edge from-layer="117" from-port="0" to-layer="118" to-port="1" />
		<edge from-layer="118" from-port="2" to-layer="123" to-port="0" />
		<edge from-layer="119" from-port="0" to-layer="123" to-port="1" />
		<edge from-layer="120" from-port="0" to-layer="123" to-port="2" />
		<edge from-layer="121" from-port="0" to-layer="123" to-port="3" />
		<edge from-layer="122" from-port="0" to-layer="123" to-port="4" />
		<edge from-layer="123" from-port="5" to-layer="124" to-port="0" />
		<edge from-layer="124" from-port="1" to-layer="139" to-port="0" />
		<edge from-layer="125" from-port="0" to-layer="126" to-port="0" />
		<edge from-layer="126" from-port="1" to-layer="128" to-port="0" />
		<edge from-layer="127" from-port="0" to-layer="128" to-port="1" />
		<edge from-layer="128" from-port="2" to-layer="130" to-port="0" />
		<edge from-layer="128" from-port="2" to-layer="132" to-port="0" />
		<edge from-layer="129" from-port="0" to-layer="130" to-port="1" />
		<edge from-layer="130" from-port="2" to-layer="138" to-port="0" />
		<edge from-layer="131" from-port="0" to-layer="136" to-port="1" />
		<edge from-layer="131" from-port="0" to-layer="137" to-port="0" />
		<edge from-layer="132" from-port="1" to-layer="135" to-port="0" />
		<edge from-layer="133" from-port="0" to-layer="135" to-port="1" />
		<edge from-layer="134" from-port="0" to-layer="135" to-port="2" />
		<edge from-layer="135" from-port="3" to-layer="136" to-port="0" />
		<edge from-layer="135" from-port="4" to-layer="137" to-port="2" />
		<edge from-layer="136" from-port="2" to-layer="137" to-port="1" />
		<edge from-layer="137" from-port="3" to-layer="138" to-port="1" />
		<edge from-layer="138" from-port="2" to-layer="139" to-port="1" />
		<edge from-layer="139" from-port="2" to-layer="141" to-port="0" />
		<edge from-layer="140" from-port="0" to-layer="141" to-port="1" />
		<edge from-layer="141" from-port="2" to-layer="146" to-port="0" />
		<edge from-layer="142" from-port="0" to-layer="146" to-port="1" />
		<edge from-layer="143" from-port="0" to-layer="146" to-port="2" />
		<edge from-layer="144" from-port="0" to-layer="146" to-port="3" />
		<edge from-layer="145" from-port="0" to-layer="146" to-port="4" />
		<edge from-layer="146" from-port="5" to-layer="151" to-port="0" />
		<edge from-layer="147" from-port="0" to-layer="148" to-port="0" />
		<edge from-layer="148" from-port="1" to-layer="150" to-port="0" />
		<edge from-layer="149" from-port="0" to-layer="150" to-port="1" />
		<edge from-layer="150" from-port="2" to-layer="151" to-port="1" />
		<edge from-layer="151" from-port="2" to-layer="153" to-port="0" />
		<edge from-layer="152" from-port="0" to-layer="153" to-port="1" />
		<edge from-layer="153" from-port="2" to-layer="158" to-port="0" />
		<edge from-layer="154" from-port="0" to-layer="158" to-port="1" />
		<edge from-layer="155" from-port="0" to-layer="158" to-port="2" />
		<edge from-layer="156" from-port="0" to-layer="158" to-port="3" />
		<edge from-layer="157" from-port="0" to-layer="158" to-port="4" />
		<edge from-layer="158" from-port="5" to-layer="173" to-port="0" />
		<edge from-layer="159" from-port="0" to-layer="160" to-port="0" />
		<edge from-layer="160" from-port="1" to-layer="162" to-port="0" />
		<edge from-layer="161" from-port="0" to-layer="162" to-port="1" />
		<edge from-layer="162" from-port="2" to-layer="164" to-port="0" />
		<edge from-layer="162" from-port="2" to-layer="166" to-port="0" />
		<edge from-layer="163" from-port="0" to-layer="164" to-port="1" />
		<edge from-layer="164" from-port="2" to-layer="172" to-port="0" />
		<edge from-layer="165" from-port="0" to-layer="170" to-port="1" />
		<edge from-layer="165" from-port="0" to-layer="171" to-port="0" />
		<edge from-layer="166" from-port="1" to-layer="169" to-port="0" />
		<edge from-layer="167" from-port="0" to-layer="169" to-port="1" />
		<edge from-layer="168" from-port="0" to-layer="169" to-port="2" />
		<edge from-layer="169" from-port="4" to-layer="171" to-port="2" />
		<edge from-layer="169" from-port="3" to-layer="170" to-port="0" />
		<edge from-layer="170" from-port="2" to-layer="171" to-port="1" />
		<edge from-layer="171" from-port="3" to-layer="172" to-port="1" />
		<edge from-layer="172" from-port="2" to-layer="173" to-port="1" />
		<edge from-layer="173" from-port="2" to-layer="175" to-port="0" />
		<edge from-layer="174" from-port="0" to-layer="175" to-port="1" />
		<edge from-layer="175" from-port="2" to-layer="180" to-port="0" />
		<edge from-layer="176" from-port="0" to-layer="180" to-port="1" />
		<edge from-layer="177" from-port="0" to-layer="180" to-port="2" />
		<edge from-layer="178" from-port="0" to-layer="180" to-port="3" />
		<edge from-layer="179" from-port="0" to-layer="180" to-port="4" />
		<edge from-layer="180" from-port="5" to-layer="185" to-port="0" />
		<edge from-layer="181" from-port="0" to-layer="182" to-port="0" />
		<edge from-layer="182" from-port="1" to-layer="184" to-port="0" />
		<edge from-layer="183" from-port="0" to-layer="184" to-port="1" />
		<edge from-layer="184" from-port="2" to-layer="185" to-port="1" />
		<edge from-layer="185" from-port="2" to-layer="187" to-port="0" />
		<edge from-layer="186" from-port="0" to-layer="187" to-port="1" />
		<edge from-layer="187" from-port="2" to-layer="192" to-port="0" />
		<edge from-layer="188" from-port="0" to-layer="192" to-port="1" />
		<edge from-layer="189" from-port="0" to-layer="192" to-port="2" />
		<edge from-layer="190" from-port="0" to-layer="192" to-port="3" />
		<edge from-layer="191" from-port="0" to-layer="192" to-port="4" />
		<edge from-layer="192" from-port="5" to-layer="193" to-port="0" />
		<edge from-layer="193" from-port="1" to-layer="208" to-port="0" />
		<edge from-layer="194" from-port="0" to-layer="195" to-port="0" />
		<edge from-layer="195" from-port="1" to-layer="197" to-port="0" />
		<edge from-layer="196" from-port="0" to-layer="197" to-port="1" />
		<edge from-layer="197" from-port="2" to-layer="199" to-port="0" />
		<edge from-layer="197" from-port="2" to-layer="201" to-port="0" />
		<edge from-layer="198" from-port="0" to-layer="199" to-port="1" />
		<edge from-layer="199" from-port="2" to-layer="207" to-port="0" />
		<edge from-layer="200" from-port="0" to-layer="205" to-port="1" />
		<edge from-layer="200" from-port="0" to-layer="206" to-port="0" />
		<edge from-layer="201" from-port="1" to-layer="204" to-port="0" />
		<edge from-layer="202" from-port="0" to-layer="204" to-port="1" />
		<edge from-layer="203" from-port="0" to-layer="204" to-port="2" />
		<edge from-layer="204" from-port="3" to-layer="205" to-port="0" />
		<edge from-layer="204" from-port="4" to-layer="206" to-port="2" />
		<edge from-layer="205" from-port="2" to-layer="206" to-port="1" />
		<edge from-layer="206" from-port="3" to-layer="207" to-port="1" />
		<edge from-layer="207" from-port="2" to-layer="208" to-port="1" />
		<edge from-layer="208" from-port="2" to-layer="210" to-port="0" />
		<edge from-layer="209" from-port="0" to-layer="210" to-port="1" />
		<edge from-layer="210" from-port="2" to-layer="215" to-port="0" />
		<edge from-layer="211" from-port="0" to-layer="215" to-port="1" />
		<edge from-layer="212" from-port="0" to-layer="215" to-port="2" />
		<edge from-layer="213" from-port="0" to-layer="215" to-port="3" />
		<edge from-layer="214" from-port="0" to-layer="215" to-port="4" />
		<edge from-layer="215" from-port="5" to-layer="220" to-port="0" />
		<edge from-layer="216" from-port="0" to-layer="217" to-port="0" />
		<edge from-layer="217" from-port="1" to-layer="219" to-port="0" />
		<edge from-layer="218" from-port="0" to-layer="219" to-port="1" />
		<edge from-layer="219" from-port="2" to-layer="220" to-port="1" />
		<edge from-layer="220" from-port="2" to-layer="222" to-port="0" />
		<edge from-layer="221" from-port="0" to-layer="222" to-port="1" />
		<edge from-layer="222" from-port="2" to-layer="227" to-port="0" />
		<edge from-layer="223" from-port="0" to-layer="227" to-port="1" />
		<edge from-layer="224" from-port="0" to-layer="227" to-port="2" />
		<edge from-layer="225" from-port="0" to-layer="227" to-port="3" />
		<edge from-layer="226" from-port="0" to-layer="227" to-port="4" />
		<edge from-layer="227" from-port="5" to-layer="242" to-port="0" />
		<edge from-layer="228" from-port="0" to-layer="229" to-port="0" />
		<edge from-layer="229" from-port="1" to-layer="231" to-port="0" />
		<edge from-layer="230" from-port="0" to-layer="231" to-port="1" />
		<edge from-layer="231" from-port="2" to-layer="233" to-port="0" />
		<edge from-layer="231" from-port="2" to-layer="235" to-port="0" />
		<edge from-layer="232" from-port="0" to-layer="233" to-port="1" />
		<edge from-layer="233" from-port="2" to-layer="241" to-port="0" />
		<edge from-layer="234" from-port="0" to-layer="239" to-port="1" />
		<edge from-layer="234" from-port="0" to-layer="240" to-port="0" />
		<edge from-layer="235" from-port="1" to-layer="238" to-port="0" />
		<edge from-layer="236" from-port="0" to-layer="238" to-port="1" />
		<edge from-layer="237" from-port="0" to-layer="238" to-port="2" />
		<edge from-layer="238" from-port="4" to-layer="240" to-port="2" />
		<edge from-layer="238" from-port="3" to-layer="239" to-port="0" />
		<edge from-layer="239" from-port="2" to-layer="240" to-port="1" />
		<edge from-layer="240" from-port="3" to-layer="241" to-port="1" />
		<edge from-layer="241" from-port="2" to-layer="242" to-port="1" />
		<edge from-layer="242" from-port="2" to-layer="244" to-port="0" />
		<edge from-layer="243" from-port="0" to-layer="244" to-port="1" />
		<edge from-layer="244" from-port="2" to-layer="249" to-port="0" />
		<edge from-layer="245" from-port="0" to-layer="249" to-port="1" />
		<edge from-layer="246" from-port="0" to-layer="249" to-port="2" />
		<edge from-layer="247" from-port="0" to-layer="249" to-port="3" />
		<edge from-layer="248" from-port="0" to-layer="249" to-port="4" />
		<edge from-layer="249" from-port="5" to-layer="254" to-port="0" />
		<edge from-layer="250" from-port="0" to-layer="251" to-port="0" />
		<edge from-layer="251" from-port="1" to-layer="253" to-port="0" />
		<edge from-layer="252" from-port="0" to-layer="253" to-port="1" />
		<edge from-layer="253" from-port="2" to-layer="254" to-port="1" />
		<edge from-layer="254" from-port="2" to-layer="256" to-port="0" />
		<edge from-layer="255" from-port="0" to-layer="256" to-port="1" />
		<edge from-layer="256" from-port="2" to-layer="261" to-port="0" />
		<edge from-layer="257" from-port="0" to-layer="261" to-port="1" />
		<edge from-layer="258" from-port="0" to-layer="261" to-port="2" />
		<edge from-layer="259" from-port="0" to-layer="261" to-port="3" />
		<edge from-layer="260" from-port="0" to-layer="261" to-port="4" />
		<edge from-layer="261" from-port="5" to-layer="262" to-port="0" />
		<edge from-layer="262" from-port="1" to-layer="277" to-port="0" />
		<edge from-layer="263" from-port="0" to-layer="264" to-port="0" />
		<edge from-layer="264" from-port="1" to-layer="266" to-port="0" />
		<edge from-layer="265" from-port="0" to-layer="266" to-port="1" />
		<edge from-layer="266" from-port="2" to-layer="268" to-port="0" />
		<edge from-layer="266" from-port="2" to-layer="270" to-port="0" />
		<edge from-layer="267" from-port="0" to-layer="268" to-port="1" />
		<edge from-layer="268" from-port="2" to-layer="276" to-port="0" />
		<edge from-layer="269" from-port="0" to-layer="274" to-port="1" />
		<edge from-layer="269" from-port="0" to-layer="275" to-port="0" />
		<edge from-layer="270" from-port="1" to-layer="273" to-port="0" />
		<edge from-layer="271" from-port="0" to-layer="273" to-port="1" />
		<edge from-layer="272" from-port="0" to-layer="273" to-port="2" />
		<edge from-layer="273" from-port="3" to-layer="274" to-port="0" />
		<edge from-layer="273" from-port="4" to-layer="275" to-port="2" />
		<edge from-layer="274" from-port="2" to-layer="275" to-port="1" />
		<edge from-layer="275" from-port="3" to-layer="276" to-port="1" />
		<edge from-layer="276" from-port="2" to-layer="277" to-port="1" />
		<edge from-layer="277" from-port="2" to-layer="279" to-port="0" />
		<edge from-layer="278" from-port="0" to-layer="279" to-port="1" />
		<edge from-layer="279" from-port="2" to-layer="284" to-port="0" />
		<edge from-layer="280" from-port="0" to-layer="284" to-port="1" />
		<edge from-layer="281" from-port="0" to-layer="284" to-port="2" />
		<edge from-layer="282" from-port="0" to-layer="284" to-port="3" />
		<edge from-layer="283" from-port="0" to-layer="284" to-port="4" />
		<edge from-layer="284" from-port="5" to-layer="289" to-port="0" />
		<edge from-layer="285" from-port="0" to-layer="286" to-port="0" />
		<edge from-layer="286" from-port="1" to-layer="288" to-port="0" />
		<edge from-layer="287" from-port="0" to-layer="288" to-port="1" />
		<edge from-layer="288" from-port="2" to-layer="289" to-port="1" />
		<edge from-layer="289" from-port="2" to-layer="291" to-port="0" />
		<edge from-layer="290" from-port="0" to-layer="291" to-port="1" />
		<edge from-layer="291" from-port="2" to-layer="296" to-port="0" />
		<edge from-layer="292" from-port="0" to-layer="296" to-port="1" />
		<edge from-layer="293" from-port="0" to-layer="296" to-port="2" />
		<edge from-layer="294" from-port="0" to-layer="296" to-port="3" />
		<edge from-layer="295" from-port="0" to-layer="296" to-port="4" />
		<edge from-layer="296" from-port="5" to-layer="311" to-port="0" />
		<edge from-layer="297" from-port="0" to-layer="298" to-port="0" />
		<edge from-layer="298" from-port="1" to-layer="300" to-port="0" />
		<edge from-layer="299" from-port="0" to-layer="300" to-port="1" />
		<edge from-layer="300" from-port="2" to-layer="302" to-port="0" />
		<edge from-layer="300" from-port="2" to-layer="304" to-port="0" />
		<edge from-layer="301" from-port="0" to-layer="302" to-port="1" />
		<edge from-layer="302" from-port="2" to-layer="310" to-port="0" />
		<edge from-layer="303" from-port="0" to-layer="308" to-port="1" />
		<edge from-layer="303" from-port="0" to-layer="309" to-port="0" />
		<edge from-layer="304" from-port="1" to-layer="307" to-port="0" />
		<edge from-layer="305" from-port="0" to-layer="307" to-port="1" />
		<edge from-layer="306" from-port="0" to-layer="307" to-port="2" />
		<edge from-layer="307" from-port="3" to-layer="308" to-port="0" />
		<edge from-layer="307" from-port="4" to-layer="309" to-port="2" />
		<edge from-layer="308" from-port="2" to-layer="309" to-port="1" />
		<edge from-layer="309" from-port="3" to-layer="310" to-port="1" />
		<edge from-layer="310" from-port="2" to-layer="311" to-port="1" />
		<edge from-layer="311" from-port="2" to-layer="313" to-port="0" />
		<edge from-layer="312" from-port="0" to-layer="313" to-port="1" />
		<edge from-layer="313" from-port="2" to-layer="318" to-port="0" />
		<edge from-layer="314" from-port="0" to-layer="318" to-port="1" />
		<edge from-layer="315" from-port="0" to-layer="318" to-port="2" />
		<edge from-layer="316" from-port="0" to-layer="318" to-port="3" />
		<edge from-layer="317" from-port="0" to-layer="318" to-port="4" />
		<edge from-layer="318" from-port="5" to-layer="323" to-port="0" />
		<edge from-layer="319" from-port="0" to-layer="320" to-port="0" />
		<edge from-layer="320" from-port="1" to-layer="322" to-port="0" />
		<edge from-layer="321" from-port="0" to-layer="322" to-port="1" />
		<edge from-layer="322" from-port="2" to-layer="323" to-port="1" />
		<edge from-layer="323" from-port="2" to-layer="325" to-port="0" />
		<edge from-layer="324" from-port="0" to-layer="325" to-port="1" />
		<edge from-layer="325" from-port="2" to-layer="330" to-port="0" />
		<edge from-layer="326" from-port="0" to-layer="330" to-port="1" />
		<edge from-layer="327" from-port="0" to-layer="330" to-port="2" />
		<edge from-layer="328" from-port="0" to-layer="330" to-port="3" />
		<edge from-layer="329" from-port="0" to-layer="330" to-port="4" />
		<edge from-layer="330" from-port="5" to-layer="331" to-port="0" />
		<edge from-layer="331" from-port="1" to-layer="336" to-port="0" />
		<edge from-layer="332" from-port="0" to-layer="333" to-port="0" />
		<edge from-layer="333" from-port="1" to-layer="335" to-port="0" />
		<edge from-layer="334" from-port="0" to-layer="335" to-port="1" />
		<edge from-layer="335" from-port="2" to-layer="336" to-port="1" />
		<edge from-layer="336" from-port="2" to-layer="338" to-port="0" />
		<edge from-layer="337" from-port="0" to-layer="338" to-port="1" />
		<edge from-layer="338" from-port="2" to-layer="343" to-port="0" />
		<edge from-layer="339" from-port="0" to-layer="343" to-port="1" />
		<edge from-layer="340" from-port="0" to-layer="343" to-port="2" />
		<edge from-layer="341" from-port="0" to-layer="343" to-port="3" />
		<edge from-layer="342" from-port="0" to-layer="343" to-port="4" />
		<edge from-layer="343" from-port="5" to-layer="345" to-port="0" />
		<edge from-layer="344" from-port="0" to-layer="345" to-port="1" />
		<edge from-layer="345" from-port="2" to-layer="350" to-port="0" />
		<edge from-layer="346" from-port="0" to-layer="350" to-port="1" />
		<edge from-layer="347" from-port="0" to-layer="350" to-port="2" />
		<edge from-layer="348" from-port="0" to-layer="350" to-port="3" />
		<edge from-layer="349" from-port="0" to-layer="350" to-port="4" />
		<edge from-layer="350" from-port="5" to-layer="351" to-port="0" />
		<edge from-layer="350" from-port="5" to-layer="357" to-port="0" />
		<edge from-layer="351" from-port="1" to-layer="354" to-port="0" />
		<edge from-layer="352" from-port="0" to-layer="354" to-port="1" />
		<edge from-layer="353" from-port="0" to-layer="354" to-port="2" />
		<edge from-layer="354" from-port="3" to-layer="356" to-port="0" />
		<edge from-layer="355" from-port="0" to-layer="356" to-port="1" />
		<edge from-layer="356" from-port="2" to-layer="357" to-port="1" />
		<edge from-layer="357" from-port="2" to-layer="362" to-port="0" />
		<edge from-layer="358" from-port="0" to-layer="362" to-port="1" />
		<edge from-layer="359" from-port="0" to-layer="362" to-port="2" />
		<edge from-layer="360" from-port="0" to-layer="362" to-port="3" />
		<edge from-layer="361" from-port="0" to-layer="362" to-port="4" />
		<edge from-layer="362" from-port="5" to-layer="367" to-port="0" />
		<edge from-layer="363" from-port="0" to-layer="364" to-port="0" />
		<edge from-layer="364" from-port="1" to-layer="366" to-port="0" />
		<edge from-layer="365" from-port="0" to-layer="366" to-port="1" />
		<edge from-layer="366" from-port="2" to-layer="367" to-port="1" />
		<edge from-layer="367" from-port="2" to-layer="369" to-port="0" />
		<edge from-layer="368" from-port="0" to-layer="369" to-port="1" />
		<edge from-layer="369" from-port="2" to-layer="374" to-port="0" />
		<edge from-layer="370" from-port="0" to-layer="374" to-port="1" />
		<edge from-layer="371" from-port="0" to-layer="374" to-port="2" />
		<edge from-layer="372" from-port="0" to-layer="374" to-port="3" />
		<edge from-layer="373" from-port="0" to-layer="374" to-port="4" />
		<edge from-layer="374" from-port="5" to-layer="376" to-port="0" />
		<edge from-layer="374" from-port="5" to-layer="378" to-port="0" />
		<edge from-layer="375" from-port="0" to-layer="376" to-port="1" />
		<edge from-layer="376" from-port="2" to-layer="377" to-port="0" />
		<edge from-layer="377" from-port="1" to-layer="379" to-port="0" />
		<edge from-layer="378" from-port="1" to-layer="379" to-port="1" />
		<edge from-layer="379" from-port="2" to-layer="380" to-port="0" />
	</edges>
	<rt_info>
		<MO_version value="2024.1.0-15008-f4afc983258-releases/2024/1" />
		<Runtime_version value="2024.1.0-15008-f4afc983258-releases/2024/1" />
		<conversion_parameters>
			<framework value="onnx" />
			<input value="result.1" />
			<input_model value="DIR\aclnet_des_53_int8.onnx" />
			<input_shape value="[1, 1, 1, 16000]" />
			<is_python_api_used value="False" />
			<layout value="result.1(NCWL)" />
			<model_name value="aclnet-int8" />
			<output value="486" />
			<output_dir value="DIR" />
		</conversion_parameters>
		<legacy_frontend value="False" />
	</rt_info>
</net>
